omega/models/imagebind_desc_mlp.pth (torch, 572143 bytes, 10 tensors)

fc1.weight f4 [128, 1024]
000000 e5 5d 0f 3d 85 b4 72 3c 86 63 33 3d d9 47 85 3d
       0.035001654 0.014813547 0.043796085 0.065078445
000010 96 f1 d0 3b 6a e2 34 bc ce 6c 09 bb 0e a6 81 3b
       0.0063764555 -0.011040309 -0.0020969394 0.003956563
000020 1e 6c 93 bc f5 8f 57 3d d6 c4 1a bd 43 cb f2 3c
       -0.01799589 0.052627522 -0.037785374 0.029637938
000030 79 94 bd 3c b3 0e 02 bd ec 07 b5 bb 1b 65 05 3d
       0.023142086 -0.0317523 -0.005524626 0.032567125
000040 27 54 71 bd d0 f8 72 3b e4 16 cf bb 0c fe 0c bd
       -0.058918145 0.0037074573 -0.0063198674 -0.034421965
000050 77 31 c3 3d a3 1f 2a 3d 97 ad 1b bd 1d 31 95 3d
       0.09530919 0.041534077 -0.038007345 0.07284758
000060 7a 3d db bd 3b d9 b5 bc 9d 19 e0 bc 1e af 16 bd
       -0.10705085 -0.02219831 -0.027355963 -0.0367881
000070 ee 67 63 3c bc dd 5a 3d 3b 85 55 bd e7 70 71 bd
       0.013879759 0.05343412 -0.05212901 -0.058945563
000080 24 23 10 bd d8 c7 10 bd a5 28 57 3d 35 5d b1 3c
       -0.035189763 -0.035346836 0.052528996 0.02165089
000090 59 51 ca 3d 7b 12 5e 3c 44 08 ef bc b3 41 07 bd
       0.09878797 0.013554211 -0.029178746 -0.03302164
0000a0 51 e4 f8 bd 8f 84 44 3b 99 ac bc bc f5 ca be ba
       -0.12152923 0.0029986238 -0.02303152 -0.0014556336
0000b0 d0 c1 8c 3b 2c c7 c1 3b 25 30 d8 bd 1f 0c d8 3b
       0.004295565 0.0059136357 -0.10556058 0.006593242
0000c0 8d cc 99 bb 56 d0 2b 3d 35 14 2e bc ef 3f 0e 3d
       -0.004693574 0.04194673 -0.010624935 0.03472894
0000d0 ec bc 47 3d 06 a0 2e 3d 46 77 3e 3c 87 7a c4 bc
       0.048764154 0.04263308 0.011625117 -0.023984207
0000e0 55 62 37 bc 56 0f 0c 3d 8e db 35 bd 23 18 82 3c
       -0.011192878 0.034194313 -0.044398837 0.01588065
0000f0 32 6f 17 3d 7d 4f 14 3c 56 93 97 3d 04 8b a7 3c
       0.03697128 0.009052155 0.07401149 0.02045203
000100 0f a1 03 be 87 b0 06 3b bc 2b cb 3d 9e da a7 3a
       -0.12854408 0.0020551996 0.09920451 0.0012806242
000110 a1 5d 52 3c 08 3b 86 3b 9c f3 06 3d 8c a5 07 3d
       0.012839706 0.0040963925 0.032947168 0.033116862
000120 52 02 62 3c b3 7d 57 bd b5 a2 da 3c a0 4f cb bc
       0.0137944985 -0.05261011 0.026688913 -0.024818242
000130 b5 4d 25 3d a1 3e 50 bd c6 13 96 bc a7 11 ba bd
       0.04035731 -0.050840978 -0.018319976 -0.09085398
000140 92 c7 28 3c c2 e3 e2 3a 06 65 a3 bc 38 fc 60 bd
       0.0103014875 0.0017310309 -0.019945633 -0.054928035
000150 f5 c6 ce 3c 5c 44 1f 3d 2a 6a 8b ba 2d b9 73 3d
       0.025241354 0.038883552 -0.0010636498 0.05950277
000160 4d 74 99 bc 50 93 67 bc 7f 32 d9 bb 6b 03 01 3c
       -0.018732214 -0.014134243 -0.006628334 0.00787435
000170 7e 0f b3 3c 3f 8d 12 bd 6c 2f 25 3d bb fb 54 3d
       0.021857973 -0.035779234 0.04032843 0.05199788
000180 c6 28 60 3d ce 72 6d 3a 68 96 0d bd 88 f6 7b 3d
       0.054726385 0.000905794 -0.034567267 0.061514407
000190 1e 51 cd bb a2 ca 84 3c 93 6b 96 bd 14 fb ab 3d
       -0.0062657734 0.016209904 -0.07344737 0.08397499
0001a0 fe 33 fc 3c 3b 0e 82 3c 97 92 b5 bd 2d e9 19 ba
       0.03078651 0.015875926 -0.088658504 -0.0005871233
0001b0 af a7 0d bd 63 e0 df 3b 18 55 1d 3d f0 4b 97 bc
       -0.034583744 0.006832169 0.03841123 -0.018468827
0001c0 b6 1c ff bc 99 57 39 bd f3 54 1f bd 48 91 77 3d
       -0.03114162 -0.045249555 -0.038899373 0.060441285
0001d0 fd d0 03 bd 9c 6f 80 3d 47 41 c9 ba 98 7a c4 bb
       -0.03218173 0.06271288 -0.0015354537 -0.0059960596
0001e0 21 18 25 3d 7f fc bb 3c 35 72 67 bd 09 1a 96 3b
       0.040306214 0.022947548 -0.0565054 0.0045807404
0001f0 0a de ee ba 53 b6 7b 3c ba 2b b0 bd b1 ff f3 ba
       -0.0018224132 0.015363294 -0.0860209 -0.0018615631
000200 7a 4e 4a bd 6c 0d b4 bb 2a 28 19 3c b2 80 fd bc
       -0.049391247 -0.005494764 0.009347955 -0.030945156
000210 b6 9d 19 3d ca d5 78 3d 1d 18 83 bd 61 00 e4 bb
       0.03750392 0.06075076 -0.064010836 -0.006958053
000220 cb 37 98 bd 5a f0 4d 3d 48 77 de 3b 1b b8 d1 3c
       -0.07432517 0.050278045 0.006789122 0.025600484
000230 0f 7c 95 bc 90 67 93 3d b1 f8 03 bd 4a 9b 7d bd
       -0.018247632 0.07197487 -0.032219592 -0.061915673
000240 25 9f 96 3c f6 83 fb bc 19 e0 8a 3c 51 60 cd bb
       0.018386433 -0.030702572 0.016952561 -0.0062675853
000250 05 4c bd 3c 52 1d 4b 3d 20 db 00 bd 22 af a2 3c
       0.023107538 0.04958851 -0.031458974 0.0198589
000260 e9 17 59 39 6f 22 80 bc 9b 8f fe bc 42 44 a3 bd
       0.0002070364 -0.01564142 -0.031074336 -0.079720035
000270 70 df 82 3c 4c a4 91 bd 7b 6b 72 3d df 2d 1a bc
       0.015975684 -0.07111415 0.059184533 -0.009410351
000280 80 36 56 3d b9 12 51 3c 16 aa c0 bc 4d 5d fe bc
       0.05229807 0.0127608115 -0.023518603 -0.031050349
000290 ca fd 23 3d 3c f2 a5 bc ac a5 bd 3c 2a 53 de 3c
       0.040036954 -0.020257108 0.023150288 0.027139265
0002a0 0f d6 18 bd 25 8e fe bc 4f 0b e0 3c 2a bd 7b 3d
       -0.037313517 -0.03107364 0.027349142 0.061459698
0002b0 2e 25 27 bd 1f 2e 2b bb 68 e5 a1 3c c5 df 93 bd
       -0.04080694 -0.002612002 0.01976271 -0.07220415
0002c0 e7 2b 88 3c 81 cc b1 bc d8 91 13 3d 2b 8a 30 bd
       0.016622497 -0.02170396 0.03602776 -0.043100517
0002d0 c6 a9 b5 3c 4a 80 8f bd 08 6e 09 bc bd 61 81 3d
       0.02217568 -0.07006891 -0.00838805 0.0631747
0002e0 29 6f ca 3c 45 1b 3d bd f9 51 99 3b aa 2d 7b 3d
       0.024711208 -0.046168584 0.0046789614 0.061322846
0002f0 81 9c 26 bd 23 17 08 bd af 1e d6 bc 1f 1a 13 bd
       -0.040676598 -0.03322519 -0.026137678 -0.035913583
000300 19 25 3f bd 45 bd 26 bd c6 29 0a 3d 74 93 8c bc
       -0.04666624 -0.040707845 0.033731245 -0.017160155
000310 dd a5 60 3c e8 b3 31 3d 9d 89 20 3d 4c 7d e5 bb
       0.01371142 0.043384463 0.03919374 -0.007003462
000320 e2 25 d2 3c 02 60 cf 3b b0 61 95 3c d5 d1 01 3d
       0.02565283 0.0063285837 0.018235058 0.031694252
000330 1d 24 ba bc c0 4b 20 3d 08 03 d2 bc e1 cf b8 bc
       -0.022722298 0.03913474 -0.025636211 -0.022560062
000340 50 f5 42 3c 25 ab 1b bc d6 7f 9f 3c 50 62 0c 3d
       0.011899307 -0.009501253 0.019470137 0.034273446
000350 8c 14 f9 3c 17 74 b1 bc 75 21 a2 bd ed 8b f1 3c
       0.030405305 -0.021661801 -0.07916538 0.029485667
000360 02 07 37 3c 3f a1 46 3c d5 0e 94 bd bb 83 11 3d
       0.011171104 0.012123405 -0.072293915 0.03552602
000370 86 e0 94 3c 15 32 4f 3d d3 2c e7 bb ad c1 41 3d
       0.018173467 0.05058487 -0.007054904 0.047303844
000380 5c 09 98 bb 7f 16 39 bd dd fe 7a 3d 25 7e 32 bb
       -0.0046397876 -0.04518747 0.061278213 -0.0027235833
000390 d0 5d fb 3c 0b 36 53 3a ca 7e 77 bc 4d 1a a0 bd
       0.030684382 0.0008057064 -0.015105912 -0.078175165
0003a0 21 09 42 3c 14 b1 4b bb b7 bc 2b bd f5 3b 21 bd
       0.011842997 -0.0031080889 -0.04192802 -0.03936382
0003b0 48 de 0d 3c e8 74 6c 3d 01 41 83 bd 59 81 e9 bb
       0.008658953 0.057728678 -0.06408883 -0.007126015
0003c0 55 83 d4 3b 81 d4 9d bc 49 06 5b bc 67 87 3c bd
       0.0064853826 -0.019266369 -0.013368198 -0.046027567
0003d0 21 45 d1 bc f6 32 2d 3c 34 a7 03 3d 61 b6 8d bc
       -0.025545659 0.010571232 0.03214188 -0.01729888
0003e0 c5 62 92 3a 82 5c ed bc db f2 c7 3d b5 6f a2 bc
       0.0011168352 -0.028974775 0.09763118 -0.019828657
0003f0 eb b8 4f 3b ff 3a 65 bc b3 e6 fb bc 67 65 67 3c
       0.0031695913 -0.013991117 -0.030749654 0.014123297

fc1.bias f4 [128]
000000 14 e3 d3 bd 2e 8b 1c 3d a6 81 81 bc 66 84 36 bc
       -0.10346046 0.03821867 -0.015808892 -0.011139965
000010 71 8c a7 bc 95 dd b5 bc 44 83 4f 3d fe 48 a2 bc
       -0.02045271 -0.022200385 0.050662294 -0.019810196
000020 a7 50 8a 3c ad a6 28 bd a9 45 1f 3d a6 73 03 bd
       0.016884161 -0.04117458 0.038884792 -0.032092713
000030 c8 30 7e 3c 09 89 74 3d a0 ce 41 3d 36 79 83 3b
       0.01551456 0.059701 0.047316194 0.004012252
000040 61 f4 62 bc c8 7d ab bd b7 bb 1e bd 7d 76 0d 3b
       -0.01385221 -0.083736 -0.038753238 0.0021585517
000050 ac 0b 90 bc e9 59 8d bc 48 ee 27 3d 92 97 15 bd
       -0.01758369 -0.017254787 0.040998727 -0.0365215
000060 27 eb 7a 3c 68 d2 10 bd ce f0 59 bc 2e 27 30 bd
       0.015314854 -0.03535691 -0.013302041 -0.043006115
000070 f5 6f 4c bd 82 bf 6c 3c 98 bb cf bc 44 4a 9a bd
       -0.049911458 0.014449956 -0.025358006 -0.07533696
000080 7d f5 8c bb 23 1c a0 3b 0d 33 85 bd 33 68 86 bd
       -0.0043017254 0.0048861667 -0.06503878 -0.06562843
000090 07 98 07 3d 9d ad 82 3c b6 1c 7a bd 69 07 e8 bc
       0.03310397 0.015951926 -0.061062537 -0.028323846
0000a0 26 b4 44 3c 09 4b 4d 3d 1f be 91 bc f7 05 31 3c
       0.012005841 0.050120387 -0.017790852 0.010804645
0000b0 98 e1 7d bb e8 69 c8 3b db 40 1b 3d 4d 3c 80 bc
       -0.00387392 0.0061161406 0.037903648 -0.015653754
0000c0 eb c6 d2 bc de 8d 6c 3d 83 4f 2d 3b df 62 eb bb
       -0.025729617 0.057752483 0.0026445098 -0.007183417
0000d0 60 a7 93 bc 0f 27 50 3b 6d 33 8a 3c cb 52 3e bc
       -0.018024147 0.0031761562 0.016870225 -0.011616419
0000e0 af 93 85 3d 06 64 ae bd 8b dc 11 3d e5 27 61 3b
       0.06522309 -0.08515172 0.035610717 0.0034356054
0000f0 ff fc 9c 39 1a 11 05 bc 57 95 d6 bc be ef 29 bc
       0.00029943135 -0.008121753 -0.026194258 -0.0103721
000100 bd 89 09 3b f8 d6 6e bd 6a e0 23 bb 1c 77 f1 ba
       0.002098664 -0.05831048 -0.0025005587 -0.0018422338
000110 75 65 0b bd 0d 42 e4 3c b4 3a 85 bd 28 f0 94 bd
       -0.034032304 0.027863527 -0.06505337 -0.07272369
000120 5a eb f4 bc 19 1d 05 bd ab 75 0b bd c7 0b 86 bd
       -0.02989738 -0.032498453 -0.034047764 -0.06545215
000130 f5 f5 a0 bc 84 13 bb bd dd a9 6b bd b8 b4 0d 3c
       -0.019648531 -0.09134582 -0.05753504 0.008649044
000140 ad d1 2a bd b0 0d fa 3b 25 f5 35 bd c7 c7 76 bd
       -0.04170387 0.007631026 -0.04442324 -0.060249116
000150 0d 0e fe bb 13 8a a2 bc 8f ab 34 bd e4 b9 b4 bc
       -0.00775314 -0.01984123 -0.044108924 -0.022061296
000160 ab df 62 bc 7d a3 7d bc 7b d2 c2 38 77 8b 3e bb
       -0.013847272 -0.015480873 9.289846e-05 -0.0029074827
000170 08 6d 4c 3c a1 df e7 bc da 0f d4 bc 60 f5 12 bd
       0.012477167 -0.028304877 -0.025886465 -0.03587854
000180 f9 cc 37 3a 38 2d 62 bd f4 4a a4 bc c0 bf 67 bc
       0.00070114393 -0.055218905 -0.020055272 -0.014144838
000190 59 87 f5 bb 34 7e 19 3d 07 08 93 bd 50 60 24 bd
       -0.0074929413 0.037473872 -0.071792655 -0.040130913
0001a0 0c a3 12 bd 54 2b 1e bd 5b c3 7c bd 9f c6 88 bc
       -0.035800025 -0.03861554 -0.061709743 -0.016696272
0001b0 00 43 44 bd 09 7e e2 bc 3c 1b d9 bb 3e e7 ce bc
       -0.04791546 -0.027647989 -0.006625561 -0.02525675
0001c0 b3 a2 86 bb 74 76 dc 3c fb 05 2b bd ce 2f 52 3c
       -0.0041087507 0.026911952 -0.04175375 0.01282878
0001d0 2c f6 e2 3b 65 73 ee 39 ff 85 55 3d 8e 38 e3 bc
       0.0069263186 0.00045480873 0.05212974 -0.027736928
0001e0 c1 a0 fe bc 92 a3 32 bd ea 81 20 bd 83 81 d2 3c
       -0.031082513 -0.043613024 -0.039186396 0.025696522
0001f0 88 88 91 bc 8a 07 5d bd d2 a6 0a bd d5 b8 5d 3b
       -0.017765298 -0.053962268 -0.0338505 0.0033832092

fc2.weight f4 [64, 128]
000000 43 ba 9b 3d 53 f1 9c bc 1c e8 c5 bd 7b 3f 0a be
       0.07603886 -0.019158041 -0.09663412 -0.13500778
000010 d3 6a 8b bd 86 4e 8c bd 0d 62 d1 bc a7 de cb bc
       -0.068074845 -0.06850915 -0.02555945 -0.024886442
000020 15 fb ca bd 0f 9b f1 3d ae 25 24 be f5 b8 ef bc
       -0.09911171 0.11797153 -0.16029999 -0.029263
000030 a9 c7 8a 3d a7 bb 05 be cc 7f 52 3b de be 11 be
       0.067763634 -0.13059865 0.003211963 -0.14232966
000040 f4 f8 ea 3d a4 4f 6c bc e0 d4 e5 3b 98 2e a8 bd
       0.11473265 -0.014423285 0.007013902 -0.08212012
000050 1f ea 90 3d 3d d6 0c 3d da e3 2e 3e e9 69 e5 bb
       0.07075905 0.034384 0.17079106 -0.007001151
000060 f5 db 83 3c 09 05 08 3e c4 8c c0 3d 7d 7a 5e 3d
       0.016096095 0.13283171 0.09401849 0.054316033
000070 4b bd 0b 3e 62 33 47 3e 5f 11 1b 3e c3 0d 84 bd
       0.13646428 0.19453195 0.15143345 -0.06447937
000080 76 cd 2f be 8c 95 88 3d 70 07 6c 3c 3c df 7e 3b
       -0.17168221 0.06669149 0.01440607 0.0038890382
000090 66 f8 1f 3b 62 9c 73 3d b4 64 29 3d 67 ac 1e bd
       0.0024409532 0.05947531 0.041355804 -0.038738634
0000a0 87 3c 2d ba ca b8 9f 3d 85 2e f6 bc 3e 43 14 be
       -0.00066084455 0.077989176 -0.03005148 -0.14478776
0000b0 e2 f5 9e 3d 84 f6 93 3d 52 e0 9b 3d 85 97 a9 3c
       0.07761742 0.072247535 0.07611145 0.020702133
0000c0 ce 75 14 be 4b 6f 43 bd 2a b8 8a bc 6f df b5 bc
       -0.14498064 -0.04771356 -0.01693352 -0.022201268
0000d0 ca ce 1b bd 97 b0 d9 3d b3 71 08 be 63 ef 13 be
       -0.038039006 0.10629385 -0.13324623 -0.14446788
0000e0 6a be 2f 3d 4f 4a 05 bd d5 f8 f0 3d 97 06 47 3d
       0.042906202 -0.03254157 0.11766211 0.04859027
0000f0 e2 eb e6 3d 1d e9 60 bd 0a c7 4b 3d 3b 24 9f bd
       0.1127546 -0.054909814 0.049750365 -0.07770582
000100 49 14 8c 3e 85 bb 30 bd 99 41 f9 3d 0d 74 c4 bd
       0.27359226 -0.043147583 0.12170715 -0.095924474
000110 71 a9 9c 3d e2 e7 9a bd e7 89 2e 3c 0a ff 37 be
       0.07649506 -0.075637594 0.010652996 -0.17968383
000120 bb f3 46 bd 93 e7 51 3d f3 ac 39 3e 6c 21 91 bd
       -0.048572283 0.051246237 0.18132381 -0.07086453
000130 2c 89 3a bd 7f 07 44 bc 51 f7 ba 3d 14 8b 09 be
       -0.045540974 -0.011964678 0.09129203 -0.1343196
000140 0c 39 f2 3c 66 b1 14 be 1e 46 fc 3d ca 4a 39 bd
       0.029568218 -0.14520797 0.12318061 -0.04523734
000150 ef 19 90 bd b2 ca 23 bd ad 31 c6 bb 52 03 c6 bc
       -0.070361964 -0.039988227 -0.0060484023 -0.024171505
000160 b1 da 7f 3d f7 9c 97 3d 70 3c 3f 3d 63 ab d7 3c
       0.06246442 0.074029855 0.046688497 0.02632684
000170 02 11 0b bd 08 c2 a4 bd c2 91 9a bd b9 f1 88 3c
       -0.033951767 -0.08044821 -0.07547332 0.016716825
000180 07 4d 27 be 82 c7 56 bd f1 c3 0b 3d e3 1e a2 bd
       -0.16337977 -0.05243636 0.03412241 -0.079160474
000190 55 82 be bd 65 04 25 3e f3 d2 0d be a7 c6 e4 bd
       -0.093022026 0.16114958 -0.13850002 -0.111707024
0001a0 00 19 13 be 20 cc 5a 3e b6 3e ba bd 9d 39 5e 3d
       -0.14365005 0.2136693 -0.090939924 0.054254163
0001b0 c1 4a a1 bc cd 4d a0 bd 14 13 b7 3a 26 8d 94 3d
       -0.019688966 -0.07827339 0.0013967478 0.072534844
0001c0 42 56 07 be 50 32 5b bd 0f 3a bc 3c ba d7 b7 ba
       -0.13216498 -0.05351478 0.022976903 -0.0014026084
0001d0 05 c3 c3 3d 0c 54 03 3e a5 9d 86 bc dd ab ae bd
       0.095586814 0.1282503 -0.016432593 -0.08528874
0001e0 03 e4 35 bd d6 4d e0 bc ec cd bd bd bd af 98 3d
       -0.044406902 -0.027380865 -0.09267792 0.074553944
0001f0 c8 6e 4a 3d de 46 89 bd cf ea 38 3d 1f 6d 33 3e
       0.049422055 -0.0670297 0.045145806 0.17522095
000200 9c 2a b1 bd 00 64 13 bb 16 3c 48 3d 4b dd 96 bd
       -0.08650705 -0.0022490025 0.048885427 -0.07366427
000210 81 fe 87 3d c3 32 cd 3b 50 de fd bc de 64 c4 bc
       0.0664034 0.006262155 -0.030989796 -0.023973878
000220 4d af 43 3d fb 76 8e bc 99 9f 85 bd 54 ba c4 3d
       0.0477746 -0.017390719 -0.065245815 0.09605852
000230 db e6 25 3d 3c b4 77 be 59 76 8a bb ff 03 0e bd
       0.040503364 -0.24189848 -0.004225534 -0.03467178
000240 4a 44 22 bc 14 e4 09 3d 80 ed 85 bd a1 fb 88 3c
       -0.009903977 0.033664778 -0.0653944 0.016721549
000250 84 7d 6a bd d3 8b 2d 3e 94 8c 97 bd b2 da 14 3e
       -0.057248607 0.1694787 -0.0739986 0.1453655
000260 ec e9 15 3d 97 35 36 3d 05 6d d8 3d b1 85 0f 3c
       0.03660004 0.0444847 0.10567669 0.008759902
000270 ab 53 88 bd cd 82 c0 3b d0 55 d8 bd 39 bb ed bd
       -0.066565834 0.0058749677 -0.105632424 -0.116079755
000280 e3 4c 92 3d ad 74 08 bd 41 61 c1 bc 8b 47 0d 3e
       0.07143571 -0.033314396 -0.023605945 0.13796823
000290 7f 4a 23 3e 98 7e 5a bd 90 2d 12 3d 88 61 f9 bc
       0.15946387 -0.053343385 0.035687983 -0.030442014
0002a0 d1 a4 22 bd 9c cc 3e be 7d 13 23 be a1 78 26 3d
       -0.039707962 -0.1863274 -0.15925403 0.040642384
0002b0 27 f2 9b 3d 43 9c 90 bd c1 c9 52 bd 5f b9 22 bd
       0.07614546 -0.070610546 -0.05146194 -0.039727565
0002c0 c0 ed b8 3d 58 bb d1 3c 3a bd c1 bd d4 a7 fb bd
       0.09029722 0.025602028 -0.0945992 -0.1228787
0002d0 17 2a 6b 3d e0 98 97 bd da 97 42 3d 78 ba bb 3d
       0.057413187 -0.074022055 0.0475081 0.091664255
0002e0 54 4a 09 be dd a5 67 3c 31 3b 63 bc 60 f7 3d bc
       -0.1340726 0.014138666 -0.013869093 -0.011594623
0002f0 99 5d 9f bb 9a 9d b7 bc 52 e8 05 3c fe 17 11 bc
       -0.0048634526 -0.022414017 0.008173065 -0.008855818
000300 da 60 d9 bd 47 af ad 3d 13 ac 05 be 50 6e 1d 3d
       -0.10614176 0.08480697 -0.13053922 0.03843528
000310 15 ec d9 bd 7b f3 19 be ea da 50 bd 3c 6a 39 3e
       -0.10640732 -0.15034287 -0.050990023 0.18106931
000320 a8 19 01 3e e2 7c a8 bd a5 39 cd bd 16 c6 59 3e
       0.12607443 -0.082269445 -0.100207604 0.2126697
000330 14 cf 84 39 19 f7 86 3c 8a 0a 0a bc 91 55 52 3d
       0.00025331287 0.016475247 -0.008425364 0.051351134
000340 55 73 0e bd 7e 5b fc bb b4 3b e4 bd de f4 fb 3b
       -0.034777958 -0.0077013364 -0.111442 0.0076891026
000350 5e 35 06 bd 4c eb a0 3d c7 cf 4f 3d 3f e4 6e 3d
       -0.03276574 0.07857379 0.05073526 0.05832314
000360 ef 4b f7 bc 01 a4 82 bd f8 8a f0 bc 2e 0e 06 be
       -0.030187575 -0.063789375 -0.02936314 -0.13091347
000370 70 81 a7 3c 46 a2 76 3d 51 c0 27 3e a8 fd c6 3b
       0.020447463 0.06021335 0.16381957 0.0060727187
000380 9d 7f 79 3d bb 62 35 bd 2c 8a 02 be d0 1b d9 3c
       0.060912717 -0.04428361 -0.12748021 0.02650252
000390 26 cb 94 3d c1 72 b8 bd 92 ff 8a 3d 29 09 8e bb
       0.0726531 -0.090062626 0.067870274 -0.004334588
0003a0 6d 28 3b bd 1b ca 6e bc 53 11 27 bd 05 b1 d6 bb
       -0.04569285 -0.014574553 -0.040788006 -0.006551864
0003b0 b6 a7 55 bd 45 14 48 3e e9 4f 91 bd 7e f0 38 bd
       -0.052161895 0.19538982 -0.0709532 -0.045151226
0003c0 cd 11 72 3d c3 c0 9d bd 1d 05 ed bd d1 4d ce bc
       0.059099007 -0.07702782 -0.11573241 -0.02518359
0003d0 e4 13 15 bc 18 01 33 be fc 45 70 bd 21 35 c7 3c
       -0.009098981 -0.17480886 -0.058660492 0.024317326
0003e0 7e 50 32 be 38 9a 41 bd e8 4f 72 bd 96 8e ca bc
       -0.17413518 -0.047266215 -0.059158236 -0.024726193
0003f0 98 39 de bd c1 6d 84 bd 5e c6 eb bd 46 e0 d1 bd
       -0.10850829 -0.064662464 -0.11512445 -0.10247855

fc2.bias f4 [64]
000000 64 a6 dc bd 7e 95 8f 3d 72 4a a2 bd 00 fc 02 3d
       -0.10773924 0.07010935 -0.079243556 0.031978607
000010 a5 d8 b2 3c 26 25 5d bd 8f 96 38 3d b1 86 1d bc
       0.02183182 -0.053990506 0.04506546 -0.009614632
000020 cc ba 04 bd 13 ba f3 bc ca 65 08 3e 0f ec 86 bd
       -0.032404706 -0.029751813 0.1332008 -0.06587993
000030 7a 30 af bd a3 8a 38 bd 12 ce 9f 3d 59 55 ed 3b
       -0.08554168 -0.04505409 0.07802977 0.0072428402
000040 65 13 bc 3c 4a a7 92 bd 99 77 90 bd d6 42 93 3d
       0.022958467 -0.07160814 -0.070540614 0.07190482
000050 88 c7 cc 3c e7 06 9c bd b3 31 b3 bc e4 ae e4 bc
       0.024997488 -0.07618504 -0.021874284 -0.027915426
000060 20 35 96 bc c5 ce 2d be a0 f0 04 be 2c 18 bf 3d
       -0.018335879 -0.16973408 -0.12982416 0.09330782
000070 41 38 c3 3b a3 d0 8c 3d 9a a9 51 3d 35 fe ea bd
       0.0059576337 0.06875732 0.051187135 -0.114742674
000080 03 5a 83 bd 53 ed 5f bd 68 98 da bb fd 60 e4 bc
       -0.06413653 -0.05466969 -0.0066710003 -0.027878279
000090 0b c3 6f 3d f1 1c cb bd 9a 1c a1 bd fb 0b a7 bd
       0.058535617 -0.099176295 -0.078667834 -0.08156582
0000a0 8b 33 83 bd 1d 7e 8b 3c 34 22 e1 bd 94 b7 b2 bd
       -0.064063154 0.017027909 -0.10992852 -0.08726421
0000b0 b8 81 b0 bd 2f 17 c1 bd 53 95 e3 3d ae 7d 29 3d
       -0.08618492 -0.0942825 0.11112466 0.041379623
0000c0 12 a9 86 bd 96 ff b1 bd 46 11 46 bd c1 f0 ce bd
       -0.06575216 -0.08691327 -0.048356317 -0.10104514
0000d0 34 7b 05 3d 30 d8 7a bc 38 a2 15 bd 0f 71 e8 3c
       0.0325882 -0.015310332 -0.036531657 0.028374223
0000e0 16 a3 3d bd 2a 6f 21 bd 0a 89 e3 bd d8 d4 0c 3d
       -0.04629811 -0.039412655 -0.111101225 0.03438267
0000f0 db 32 c3 bd f9 92 31 bd 28 a1 e6 3a 59 0d 83 bd
       -0.09531184 -0.043353055 0.0017595636 -0.0639903

fc3.weight f4 [32, 64]
000000 b4 58 27 be d1 c8 11 3d 01 8f 1f be c1 e4 95 bd
       -0.16342431 0.035591904 -0.15581895 -0.07319022
000010 70 5e 29 3e 2e a2 c5 bd 61 1a 4f be 88 b9 52 be
       0.16539931 -0.09650074 -0.20224907 -0.20578587
000020 59 2b a6 bd 50 cb 63 3c 38 68 b5 bd 49 47 3c bd
       -0.08113737 0.013903454 -0.08857769 -0.04596642
000030 42 a1 ba bd f5 9f 35 bb 4e 14 97 3c bf 85 22 be
       -0.09112789 -0.002771375 0.0184423 -0.15871333
000040 f0 a4 95 3d 36 d3 16 be 95 18 84 bc c8 ea 1c 3d
       0.0730685 -0.14729008 -0.016125003 0.038309842
000050 4b 4b 19 3e 73 56 41 3d fd 9e 41 3d f3 7e bb bc
       0.14970128 0.047201585 0.047270764 -0.022887683
000060 d3 82 33 be 71 c0 83 3d b4 22 2d 3e 38 d9 6c bd
       -0.17530374 0.0643319 0.1690777 -0.057824343
000070 0f c6 1e be c8 2e 84 bd 0e 9c b4 bd e8 1b 42 3d
       -0.15505241 -0.06454235 -0.088188276 0.047389895
000080 d0 6f 0f be c6 0d 32 bd 04 09 f6 3c 95 4d 55 3e
       -0.14007497 -0.043470167 0.030033596 0.20830376
000090 4d af 8e bd 2d 82 23 3e 6e 82 11 bd 2a 1e a3 3d
       -0.0696703 0.15967627 -0.035524778 0.07964738
0000a0 27 3f 0c be 76 ef 94 3a 82 f8 82 bd 97 87 d5 3d
       -0.13695966 0.0011362869 -0.06395055 0.10426252
0000b0 10 d3 6d bd b5 95 38 bc b3 8f 1e be 7b cb e0 3d
       -0.058062613 -0.011266162 -0.15484504 0.10976311
0000c0 8b fc 47 bd 9f e0 f6 3c 65 da ed 3b f6 52 c9 bd
       -0.048824828 0.030136405 0.0072587007 -0.09830277
0000d0 d7 48 58 bd 07 a9 58 be bb fa af bc 25 2c 88 bc
       -0.05280384 -0.21158229 -0.021481862 -0.016622612
0000e0 cc 7e 43 bc 28 99 4b bd 89 a2 83 bb bb 67 6f 3d
       -0.011932086 -0.049706608 -0.0040171784 0.058448534
0000f0 3e b1 37 3e a2 3a 03 be a8 25 52 3e 29 18 45 be
       0.17938706 -0.12815335 0.20522177 -0.19247498
000100 81 d4 23 be 2e 81 c2 bd 79 67 cf bd fa 75 0f 3e
       -0.15999033 -0.09497295 -0.10127158 0.14009848
000110 cf 5f cc bd 47 af d4 bc 0b e8 e8 bd 00 f6 b3 bc
       -0.099792115 -0.025962485 -0.11372384 -0.021967888
000120 17 c4 0d 3e 4f 2e 97 3d d8 31 a4 bc 17 7f 8e 3c
       0.13844334 0.073818795 -0.020043299 0.017394586
000130 61 df 48 bd a9 44 51 be 85 77 51 3e 97 85 fb bc
       -0.049041156 -0.20436348 0.2045575 -0.030703349
000140 11 70 e1 bb 2a c0 1c 3e f2 8d 04 be 48 a6 df bd
       -0.0068798144 0.1530768 -0.12944773 -0.109203875
000150 f5 9b e2 3c 5c 7e b2 3c ae ef 94 3d c5 a4 9f bd
       0.027662257 0.021788768 0.07272278 -0.07795099
000160 f1 c1 f2 bd 96 a3 47 3d c4 c2 2c bd d5 f6 19 be
       -0.11853398 0.048739992 -0.04217793 -0.15035565
000170 74 99 e3 bd d0 82 c8 3d 4c 87 ec bd f4 c6 eb bd
       -0.11113253 0.097905755 -0.11549243 -0.11512557
000180 ea 37 29 3d 18 f5 d2 3c 9a 44 df bd 2e c1 e9 bd
       0.04131309 0.025751635 -0.109017566 -0.11413799
000190 98 54 45 be b2 66 02 bd 5f 57 19 3e 32 fb b3 bd
       -0.19270551 -0.03183622 0.14974736 -0.08788146
0001a0 a9 aa 86 3c 2b 71 b5 bc 1f 9e 08 be 63 a1 36 be
       0.016438799 -0.02214869 -0.13341568 -0.17835002
0001b0 8a 67 cd bc 2b ca 2c bd d5 1f 00 be 39 c5 c7 bd
       -0.025073785 -0.04218499 -0.12512143 -0.09754414
0001c0 d2 ed cc bd 07 39 a2 3c a3 27 86 3d 86 56 71 bd
       -0.10006298 0.019802583 0.06550529 -0.058920406
0001d0 fd 99 96 3d 48 af 07 be 4e e8 9a bd f4 6e b9 bd
       0.0735359 -0.13250458 -0.0756384 -0.09054366
0001e0 d6 1f 86 3d 56 64 68 3d 64 50 ec 3d c0 82 83 bd
       0.06549041 0.056736313 0.11538771 -0.06421423
0001f0 61 d2 ee bd bf da d5 bb 6d 2a a8 3b bb b0 ce 3d
       -0.1166122 -0.0065263207 0.0051320107 0.100923024
000200 a6 aa 30 be 86 79 0c 3e 1b 86 a9 bd 3d b1 f4 bc
       -0.17252597 0.13718233 -0.08277532 -0.02986967
000210 ae e9 8c 3e f6 7d a1 3d 34 25 8f bd 87 17 6c 3b
       0.27522033 0.07885353 -0.06989518 0.0036024766
000220 73 f0 26 3c ed ad a8 bc 02 d4 2b 3d e4 38 90 bd
       0.0101891635 -0.020590747 0.041950233 -0.07042101
000230 05 d4 6b 3d d1 25 b9 3d ec 81 1d be 36 70 d2 3c
       0.057575244 0.09040416 -0.15381593 0.025688272
000240 30 40 10 be 2e 42 8c bd 6c 00 bb 3d e9 e9 8f 3d
       -0.14086986 -0.0684856 0.0913094 0.07027037
000250 d6 6f da 3d 5b c3 63 3d 73 06 8c 3d ff 72 92 bc
       0.10665862 0.055606227 0.068371676 -0.0178771
000260 30 87 82 3c 19 76 1e 3e ef f9 1f 3e a4 a4 d7 bd
       0.015933603 0.15474738 0.15622686 -0.105294496
000270 66 41 4c be 06 06 cd bc 85 fd 50 bd 33 0f 8a 3c
       -0.19946823 -0.025027286 -0.051023025 0.01685295
000280 ea f7 cd bb b7 da 8d bc 40 09 05 3e d2 5a 3d 3e
       -0.006285657 -0.017316205 0.1299181 0.18491676
000290 cf 28 cd bd e6 b3 e8 3d 4e 29 38 3e a1 a1 0e 3e
       -0.10017549 0.11362438 0.17984506 0.13928844
0002a0 33 69 3b 3d de 1b 46 3c 52 1a 11 bd c1 b7 f0 3d
       0.045754623 0.012091605 -0.03542549 0.11753798
0002b0 1f b8 38 3d db cc 58 bd 1b 55 7d 3c ce 3b 1c 3e
       0.045097467 -0.05292974 0.015462185 0.15257189
0002c0 20 ac 3c 3d 50 7f 8b bd cf 32 64 ba d8 9c 13 3c
       0.04606259 -0.06811392 -0.0008705081 0.009009562
0002d0 18 67 69 bd bc 7d ee 3b ce 27 73 3c 15 0d bd 3d
       -0.056983083 0.0072781723 0.014841033 0.09231011
0002e0 f9 9b 40 be 2d 51 48 be 29 0c d1 bd 43 23 26 bd
       -0.18809499 -0.19562216 -0.102073975 -0.040560972
0002f0 f0 a8 dc 3d a9 18 76 bd 8d 7f da 3d 45 92 a8 bd
       0.1077441 -0.06008211 0.1066886 -0.08231024
000300 f8 88 d2 3d c6 56 dd bd 44 b9 ac 3d ee ab 65 3a
       0.10280031 -0.10807566 0.08433774 0.0008761276
000310 91 c9 c0 bd 04 4f c7 3d d0 6b 4d bd 11 6d ce bd
       -0.09413446 0.09731868 -0.050151646 -0.100793965
000320 3b 12 63 bc 2a 94 ab ba 2d 08 87 bd b3 b6 53 bd
       -0.013859327 -0.0013090421 -0.06593356 -0.051687907
000330 31 47 ab 3d 52 d5 c8 bd 7d 1f 02 be 90 4f 98 3e
       0.08363188 -0.098063126 -0.12707324 0.297482
000340 ce 63 50 3d 03 de 8e bc 27 2b e6 bd 07 33 75 bd
       0.05087643 -0.017439848 -0.112386994 -0.059863117
000350 d6 45 89 bb 93 61 89 3d 41 70 aa 3c 95 62 26 bd
       -0.0041892333 0.06708064 0.02080548 -0.04062136
000360 c7 fe 83 3d 37 1d c4 3d 11 12 88 bd b1 90 ef bc
       0.06445079 0.09575885 -0.06644071 -0.029243799
000370 5f 49 a8 3d c7 64 06 bd 29 0d 15 be a9 23 11 bd
       0.082171194 -0.032810953 -0.14555801 -0.0354344
000380 2d 6b ac 3d c6 2f 13 3e ea 6c 2c be 7c e3 21 be
       0.0841888 0.14373693 -0.16838422 -0.15809435
000390 80 aa 2f 3d bc 0f 19 3d c2 6d cc bd 52 81 14 bd
       0.04288721 0.03736852 -0.09981872 -0.036256142
0003a0 6b 24 73 bd 5f da f3 bd 5f 77 46 3e 67 53 01 be
       -0.059360903 -0.11906885 0.19381474 -0.12629472
0003b0 31 13 39 3e d9 73 6e 3a fc f3 37 bd 67 60 1c be
       0.18073727 0.0009096242 -0.044910416 -0.1527115
0003c0 f0 ed d8 3d 23 71 01 3c 95 44 df bc e9 fb 43 3e
       0.10592258 0.007900509 -0.027254382 0.19139065
0003d0 7f 0f c6 bc 0a 95 3c bb 3a 67 39 bd 03 df 07 be
       -0.024177311 -0.0028775358 -0.04526446 -0.13268666
0003e0 c1 7d 6e 3d ed bd b6 3d 5d 9a 6b 3d d3 ca 98 bd
       0.058225397 0.08922944 0.05752026 -0.07460561
0003f0 df 4a 55 3d f6 c8 0c 3e 9a a9 fd bd 87 13 a6 3c
       0.052073356 0.13748536 -0.123858646 0.020272983

fc3.bias f4 [32]
000000 04 f4 2d be 5d b8 53 3d 96 09 1a 3d 41 b2 d3 bd
       -0.16987616 0.051689494 0.037606798 -0.103367336
000010 69 4c 45 3d d7 e1 53 be fd 4e 03 3e 03 ac c1 bd
       0.048168574 -0.2069162 0.128231 -0.09456637
000020 fa e7 09 bd 5e 2b a4 bc 29 99 16 3d 4a 69 8d bd
       -0.033668496 -0.02004021 0.03676716 -0.06904848
000030 75 04 e5 bd c6 e5 5a 3e e5 ef e8 bd 18 ee d1 bd
       -0.11182491 0.21376714 -0.11373881 -0.10250491
000040 83 26 bf 3c 32 dc 0d bd 74 d8 01 3e fb fe 10 be
       0.023333794 -0.034633823 0.12680227 -0.14159767
000050 50 0d f3 bd d5 09 2d 3e 00 4f e1 bd 94 38 cf 3d
       -0.118677735 0.16898282 -0.11001396 0.10118213
000060 98 98 99 bd ba 27 b2 bd fd ef c3 3d b1 6d 52 3d
       -0.07499808 -0.086989835 0.095672585 0.05137414
000070 74 f3 95 bd 5c 5d 0b 3c ba 74 69 be db 44 ba bc
       -0.073218256 0.008506145 -0.22798434 -0.022737911

fc4.weight f4 [16, 32]
000000 7f 45 1b be 92 77 17 3e de 01 53 be 09 c9 34 3e
       -0.1516323 0.14791706 -0.20606181 0.17654814
000010 2f 46 16 3d d9 d1 9e bc ee 23 31 3c 11 3d 56 be
       0.036688026 -0.019387173 0.010811789 -0.20921732
000020 a6 7d 0b 3e 9d 89 85 3d 85 97 0b 3d 7b 69 a5 3c
       0.1362215 0.06520388 0.034080047 0.020191899
000030 b6 fa 5a 3e 20 c8 82 3d 47 fb c0 bd 12 4e b7 3c
       0.21384701 0.06385827 -0.09422927 0.022376094
000040 68 a8 3b bd d8 50 b8 bc 97 79 fb 3c 31 26 13 3e
       -0.0458149 -0.022499487 0.030697627 0.14370038
000050 b5 0f 09 bd ac 81 94 3d a2 90 17 bc 54 a6 ad 3e
       -0.033462245 0.072512954 -0.009250792 0.3391596
000060 be 12 8b 3e 3d ae 38 3e b4 35 40 3e e2 9a bf bd
       0.27162737 0.18035217 0.18770486 -0.093557134
000070 9b 23 e8 3d 4e d1 e0 3d 5c d1 ab 3d c5 23 01 be
       0.11334916 0.10977422 0.083895415 -0.12611301
000080 99 33 42 3e c7 ab 93 bd 25 30 19 3a 84 23 b1 3d
       0.18964995 -0.07210498 0.0005843661 0.08649352
000090 ca 54 28 be bf 64 39 3e be 44 c1 bd 18 1f aa 3d
       -0.16438594 0.18104838 -0.0943694 0.08306712
0000a0 cf 70 a8 bd 60 09 4d 3d 0a e6 e2 bc 28 3c df bd
       -0.082246415 0.05005777 -0.027697582 -0.10900146
0000b0 85 2f 39 3d 20 9b 90 bd 87 53 cd 3c 4e 25 5f be
       0.045211334 -0.07060838 0.025064243 -0.21791574
0000c0 21 9f a8 bd d1 b5 26 be 42 b6 35 bd db a5 68 3c
       -0.082334764 -0.16280295 -0.044363268 0.014199699
0000d0 ec 9d 53 3e 3f 12 83 bd a3 35 11 3e 90 40 9f bd
       0.20665711 -0.063999645 0.14180617 -0.07775986
0000e0 e5 2a b3 bd a2 3b 1f bc de 18 ef bc 4e 53 fc bc
       -0.08748416 -0.009718807 -0.029186662 -0.030801442
0000f0 6b 89 dd bd 1f 85 76 3e 89 50 7b 3e 38 61 68 3d
       -0.10817226 0.24074219 0.2454244 0.05673334
000100 69 f7 01 be c0 8b eb bd 2b ae da bc b9 f7 f1 3d
       -0.12692036 -0.115012646 -0.026694378 0.118148275
000110 71 0e 24 3e e5 68 f5 bd 3f 76 19 3e de 30 41 bc
       0.16021134 -0.11982898 0.14986514 -0.011791436
000120 69 03 9f bd 71 e2 09 bd 31 16 52 3e 2d f9 4b bd
       -0.07764322 -0.033663217 0.20516278 -0.04979818
000130 a9 9c 81 3d 08 50 93 3e 84 a5 21 be 40 8d 93 3d
       0.06328709 0.28771996 -0.15785795 0.07204676
000140 d8 43 18 3e 0d c4 0c bd 7e 3c 05 3e 84 89 e9 3d
       0.1486963 -0.034366656 0.13011357 0.11403182
000150 82 93 ff bd 4b 9a bf bd e9 a5 69 bd d1 d0 51 bd
       -0.12479307 -0.09355601 -0.05704299 -0.051224533
000160 3b 0e 14 3e f9 82 0b 3d 11 55 fb bd 01 e3 be 3c
       0.14458553 0.034060452 -0.122720845 0.023301603
000170 0f 60 57 be 4b 79 2b 3e c7 37 b7 3d 52 3c c8 bb
       -0.21032737 0.16745488 0.089461856 -0.0061107064
000180 e9 9d b6 3e 78 92 7d bd 5b 39 46 3e 37 b1 18 be
       0.3566735 -0.06190726 0.19357817 -0.14911352
000190 58 9f 83 3d 13 9e 34 3e e8 b1 21 3e 5a f1 96 3e
       0.06426877 0.17638426 0.15790522 0.29481012
0001a0 70 a4 82 3c 21 43 cb bd db 12 05 3e 5b 0d f7 bd
       0.01594755 -0.09924913 0.12995474 -0.12063094
0001b0 7e 8e 34 be 57 65 51 3e a4 e9 b0 3e 09 3f 35 bc
       -0.17632481 0.20448814 0.34553254 -0.011062392
0001c0 97 2f e1 3c 74 6e bf bd 07 ec 58 3d b5 ff d5 3c
       0.027488513 -0.09347239 0.05295947 0.026122907
0001d0 15 52 ab 3e 1a d4 3f bd 6f d9 ee 3d 10 31 6b bc
       0.3346106 -0.046833135 0.11662566 -0.014354959
0001e0 52 1a f3 3c 0a 40 2b bd 55 39 9b bc e7 94 46 3e
       0.029675636 -0.04180912 -0.018948236 0.19392739
0001f0 f4 79 c6 bc af f2 16 3c d8 e7 f1 3d 3d ef 45 3e
       -0.024228074 0.009213134 0.11811799 0.19329543
000200 ad 4b ef bd 73 9f 07 3e 03 85 f2 bc a4 ed c8 bd
       -0.11684356 0.13244419 -0.02960444 -0.09810951
000210 24 e3 76 3d 0b b1 4a be 91 3f 60 bc 08 38 df 3b
       0.060275212 -0.19794099 -0.01368703 0.0068120994
000220 36 1a 79 bd 83 45 83 bb cc ee 02 bd 81 a6 5f 3e
       -0.060816012 -0.004006089 -0.031966016 0.2184086
000230 76 30 6e 3d f4 90 d0 bb ba cc 43 ba 48 5a b4 bb
       0.058151685 -0.006364936 -0.00074691663 -0.0055039264
000240 e1 5d a7 3d b4 e3 86 3d f5 21 05 be 3b cb 40 be
       0.08172203 0.065864 -0.13001235 -0.18827526
000250 29 94 cf bd 94 41 47 3e 23 b8 86 3d 64 b7 0b 3d
       -0.10135681 0.1945861 0.0657809 0.03411044
000260 14 5c b0 3d 8f 6d 04 bc f1 35 b1 3d d2 4b 26 3e
       0.086113125 -0.008082761 0.08652867 0.1623986
000270 6f 9f fd 3d f5 fb 0a be 8a aa c9 bd 03 d2 b7 3d
       0.12383925 -0.13572676 -0.09846981 0.089756034
000280 b7 aa a3 bd 35 78 71 3c 2c e3 22 bd 7b d1 b5 3d
       -0.07991546 0.014738132 -0.03976743 0.08877846
000290 81 7d d2 3d ea 14 07 bd 64 c8 8b 3e 72 69 10 bd
       0.10277844 -0.03297893 0.27301323 -0.03525681
0002a0 0a 7f 15 3e af a4 3b bd 39 60 97 3d 8a 67 92 ba
       0.14599243 -0.04581135 0.073914 -0.0011169773
0002b0 bf 2d 45 be ea 22 26 3e f9 25 08 be 3b f2 30 3e
       -0.19255732 0.16224256 -0.13295735 0.17279904
0002c0 b3 83 6c 3d 5b 44 a5 bd f4 8d 3e 3e 16 d7 8c 3d
       0.057742786 -0.080696784 0.18608838 0.06876962
0002d0 02 7f 28 be db eb 3d be 64 3a 2a be a3 21 2a 3c
       -0.164547 -0.18547003 -0.16623837 0.010383996
0002e0 00 1d 11 3e 10 c5 74 3d 41 97 08 be 2b 7d 0c 3d
       0.14171219 0.059758246 -0.13338949 0.034299057
0002f0 5d 4e a1 bc e5 2c 9e 3d 8e cd ad bc 20 f3 d9 ba
       -0.019690687 0.07723407 -0.02121618 -0.0016628243
000300 ac 51 21 be 3f ac 39 3e c3 be c1 bb 4e dc 54 3c
       -0.15753812 0.18132113 -0.005912633 0.012991978
000310 e8 ba 78 bd ce b5 10 bd 0c 7e 64 bd 97 e7 b9 bd
       -0.060725123 -0.035329632 -0.05578427 -0.090773754
000320 00 27 80 bd 7e a3 8c 3e 20 e1 1a bd db c5 8b 3e
       -0.06257439 0.27468485 -0.037812352 0.2729939
000330 b0 c8 72 3e 5a 8e e5 bd 6f 8a 87 3d 18 74 40 be
       0.23709369 -0.11208792 0.06618201 -0.18794286
000340 b1 2a 7a be 8c 35 b2 3e b0 6a cc 3d 48 b6 d2 bb
       -0.24430348 0.34806478 0.099812865 -0.006430421
000350 cc bc 92 bd 23 bf 7c 3e b9 5c 46 bc 2e e6 c8 3d
       -0.071649164 0.24682288 -0.012107068 0.09809528
000360 a0 d7 03 3e 09 46 db 3d ac 3e 5e 3e fd e8 7e be
       0.12875223 0.107067175 0.21703595 -0.24893565
000370 b2 33 1b 3e c6 11 cf 3c 3b 14 07 3e 2f 8e 95 be
       0.15156439 0.02527703 0.13191311 -0.2921004
000380 fa 2e 11 3e 2b 1a bc bd 4a ef 35 3d 15 1f 9a 3d
       0.14178076 -0.09184679 0.044417657 0.0752546
000390 ed ab 46 bd 9b eb 2f 3e c7 2f ea bd d2 2c c5 3d
       -0.048503805 0.1717972 -0.11434894 0.096276894
0003a0 a6 ae 46 bc fe 87 c5 3d 2e 94 d8 bc 01 54 55 be
       -0.0121266 0.09645079 -0.026437845 -0.20832826
0003b0 3d 14 b9 3d cf 0a b4 bd 0d ef 20 3e 46 b3 25 be
       0.09037063 -0.08791124 0.1571619 -0.16181669
0003c0 60 65 08 bd bc d6 6c bd f9 ad 8d 3c 17 79 8b 3d
       -0.033299804 -0.057821974 0.01729487 0.068102054
0003d0 35 90 b8 3d 3f 00 08 be 86 60 d1 3b 2a 6f 8f bc
       0.0901188 -0.13281344 0.0063896803 -0.017509062
0003e0 42 95 d4 bc c4 96 3a 3e ba 3d 27 be 38 a3 8d 3d
       -0.025950078 0.18221575 -0.1633214 0.06915897
0003f0 85 45 2a be 15 00 0d 3e f4 16 28 3e e4 aa 49 3d
       -0.16628082 0.13769563 0.16415006 0.04923524

fc4.bias f4 [16]
000000 25 60 ac 3c 4b ae 85 be 25 e4 c6 3d 78 92 5d 3e
       0.021041939 -0.26109537 0.09711484 0.21637905
000010 ef 55 87 3e 60 66 89 3e 58 18 4b bd ed 93 a0 be
       0.2643275 0.26835918 -0.049583763 -0.31362858
000020 40 1f 71 bd 4d 51 e0 bd bd 6c 0a bd 9e c4 a6 3c
       -0.058867693 -0.10953007 -0.033795107 0.020357426
000030 01 d7 20 3e 83 b8 94 3e 1c 6f cf bb b0 52 9d 3e
       0.15707017 0.2904702 -0.006330384 0.30727148

fc5.weight f4 [5, 16]
000000 5c 6f 28 bf 31 1f 08 3e ec ae 0d 3d f1 dd 01 3e
       -0.6579492 0.13293149 0.034590647 0.1268232
000010 40 9a c0 3d 68 f1 0c be dd f9 5e be 0d a8 20 3e
       0.09404421 -0.13763964 -0.21775003 0.15689106
000020 3b b4 ac be 57 e4 2a bf 1b 45 e9 be f4 11 4e 3e
       -0.33731255 -0.6675467 -0.45560536 0.20124036
000030 62 a6 42 3e d5 68 7a be 66 bf 42 3e a4 23 0f 3e
       0.19008783 -0.24454053 0.19018325 0.1397844
000040 20 65 b7 be a6 73 c3 3c 02 74 49 3e f4 c1 dc 3d
       -0.3581934 0.023858856 0.1967316 0.10779181
000050 57 a5 27 3e f8 80 08 3e d8 58 9c be 38 a3 15 3d
       0.16371666 0.13330448 -0.30536532 0.03653261
000060 93 f6 67 be 5e a2 44 be 8e 3b ac be d8 21 3f 3e
       -0.22652654 -0.19202563 -0.33639187 0.18665254
000070 06 7d 41 3e e4 93 ad 3d 75 da 1a 3e 97 92 fe 3d
       0.18895349 0.084754735 0.15122397 0.124303035
000080 3c e3 37 bd 88 11 80 be ef 80 52 3e f2 65 bb 3d
       -0.044894442 -0.25013375 0.20556997 0.09150304
000090 ca a5 91 3c 7b 9b 2f 3e cb 28 06 be f3 cb 01 be
       0.01777925 0.17149155 -0.13101499 -0.12675457
0000a0 b6 ba b4 bd 38 ae 50 3d 6e 02 3e bd 01 df 26 3e
       -0.08824675 0.050947398 -0.046389036 0.16296007
0000b0 a6 6e 50 bc 75 eb ed 3d 1a 04 e0 bd 8d f2 a3 3d
       -0.012721693 0.116171755 -0.10938282 0.08005247
0000c0 35 3a dc bc 2b a8 80 3d 1b 99 37 3e 79 74 a5 bd
       -0.026883224 0.062820755 0.17929499 -0.08078856
0000d0 06 58 41 be 90 c6 f2 3d a5 48 54 3e dd f7 e5 3d
       -0.18881235 0.11854279 0.20730837 0.11228917
0000e0 83 d4 c3 3d 98 45 45 3d 13 1e e2 3d a5 80 3c be
       0.09562018 0.048162073 0.110408925 -0.18408449
0000f0 5b 4f 90 be 76 38 cf 3d 37 14 76 bd 2a f9 b3 be
       -0.28185543 0.10118191 -0.060077872 -0.35151035
000100 b3 3f 8f 3d 12 c6 a1 be ee bb 9f be e9 bb f1 be
       0.069945715 -0.31596428 -0.31198066 -0.47213677
000110 74 a3 52 3e 32 a0 00 bf 49 a4 65 3e d8 81 02 bf
       0.20570165 -0.5024444 0.22425951 -0.50979376
000120 6b 2c 23 3e f7 9e 6b be da 05 32 3e d7 58 92 be
       0.15934913 -0.23009859 0.17385045 -0.28583404
000130 f5 2d de be e9 c1 88 be 4e 3d 84 3e 1f df 06 be
       -0.43394437 -0.26710442 0.25828022 -0.13171051

fc5.bias f4 [5]
000000 cc ff c1 be 71 4d 6d 3e 30 6c 32 3e f7 0e 8a be
       -0.3789047 0.23174073 0.17424083 -0.26964542
000010 12 1d 2e 3e
       0.17003277
