omega/models/imagebind_desc_mlp.pth (torch, 571739 bytes, 10 tensors)

fc1.weight f4 [128, 1024]
0	0x3dcef51b	0.10105344
1	0x3df56f17	0.11984079
2	0xbd37d8a7	-0.04488435
3	0x3d48c39a	0.049014665
4	0xbc85fd2d	-0.016356075
5	0xbd5a97ac	-0.0533673
6	0xbd5875e4	-0.052846804
7	0x3c7c06bf	0.015382468
8	0x3a459405	0.000753701
9	0x3e163d67	0.1467186
10	0xbe112034	-0.14172441
11	0x3d11aa20	0.035562634
12	0x3d87be89	0.066281386
13	0xbd9b44e7	-0.075815015
14	0x3d71ef89	0.05906633
15	0xbdea16ad	-0.11430106
16	0xbe4a7567	-0.19771348
17	0x3dfcca70	0.123432994
18	0xbdeca619	-0.11555118
19	0xbdca347c	-0.09873292
20	0x3c9e5cd9	0.019331383
21	0xbd0a4765	-0.033759493
22	0x3c44c64c	0.012010168
23	0xbd82f64c	-0.06394634
24	0x3e0559e2	0.13022569
25	0xbdbfc361	-0.093634374
26	0x3e0099a7	0.12558614
27	0x3c53d5b9	0.012929373
28	0x3ae857b5	0.0017726334
29	0x3dae282d	0.08503757
30	0x3d84c610	0.0648309
31	0x3c8073a0	0.015680134
32	0x3d077338	0.033068866
33	0xbc503f44	-0.012710396
34	0x3e016870	0.12637496
35	0xbdaf165c	-0.085491866
36	0x3cc05bc8	0.023481265
37	0xbdaf5f71	-0.08563126
38	0x39463152	0.00018901125
39	0x3d30bba2	0.04314769
40	0xbd0b8b66	-0.034068488
41	0x3c8a5b14	0.016889133
42	0x3df8b8a6	0.12144594
43	0xbd24ddf2	-0.040250726
44	0xbce6eec5	-0.028190026
45	0xbc2b5f68	-0.010459758
46	0xbcc5365e	-0.024073776
47	0x3e2cbb5c	0.16868347
48	0xbe3dac34	-0.18522722
49	0xbbc9f4f5	-0.0061632344
50	0xbd830cf0	-0.06398952
51	0xbdcccea6	-0.100003526
52	0x3d4cdabe	0.050013296
53	0x3d2532ff	0.040331837
54	0xbce7148e	-0.028208043
55	0x3d8b9294	0.06815067
56	0x3d4bcac0	0.049753904
57	0x3b3f4bea	0.0029189535
58	0xbd00e8a7	-0.031471875
59	0xbdb5cdbd	-0.08877132
60	0x3d434d71	0.047681276
61	0xbd9669f3	-0.07344427
62	0x3d4bab78	0.049724072
63	0x3cd0efdc	0.025504999
64	0xbde8aa94	-0.1136066
65	0x3d72d7f6	0.059287988
66	0x3ccd0e18	0.025031134
67	0xbcbff15d	-0.02343052
68	0xbcf46200	-0.029831886
69	0x3dedba3f	0.11607789
70	0x3db99007	0.09060674
71	0x3d8cfd7b	0.06884285
72	0x3a20f4e4	0.0006140007
73	0x3c43148f	0.011906757
74	0xbd58b7f5	-0.05290981
75	0xbd959bb0	-0.07305086
76	0xbd925697	-0.07145422
77	0xbdb12aa3	-0.086507104
78	0x3d9cc7ce	0.07655297
79	0xbc2587a0	-0.010103136
80	0x3e07fc50	0.13279843
81	0x3d814400	0.06311798
82	0xbd90193a	-0.070360616
83	0x3e030628	0.12795317
84	0x3db693fb	0.08914944
85	0xbb8d0952	-0.0043040896
86	0xbcba9b43	-0.022779113
87	0x3d1d9437	0.038471427
88	0xbd490a5f	-0.049082156
89	0xbe067e82	-0.13134196
90	0xbd9aac19	-0.07552356
91	0xbd80b5fb	-0.0628471
92	0x3e261924	0.16220528
93	0xbdeec6da	-0.11659022
94	0xbdaf70e1	-0.08566452
95	0xbd198898	-0.03748378
96	0x3d3398c6	0.043846868
97	0x3d9ead78	0.0774793
98	0x3d38f852	0.04515869
99	0x3d8fe4e0	0.07026076
100	0x3dcd9470	0.10038078
101	0xbd5066b8	-0.05087921
102	0x3d4f1ee7	0.05056658
103	0x3ca08b02	0.019597534
104	0xbcea8007	-0.028625501
105	0x3d43d4ef	0.04781049
106	0xbdb354c9	-0.08756406
107	0x3b644bfa	0.0034835325
108	0xbd099523	-0.033589493
109	0x3dd54c29	0.10414917
110	0xbdebc407	-0.115119986
111	0x3e4b146b	0.19832008
112	0xbdb39cea	-0.08770163
113	0x3d043f94	0.032287195
114	0x3c468c51	0.012118415
115	0xbdad614b	-0.08465823
116	0x3ccacd92	0.024756227
117	0xbd08235c	-0.033236846
118	0x3e201739	0.15633859
119	0x3d9064fb	0.070505105
120	0x3dcd11a6	0.10013132
121	0x3c441e65	0.011970137
122	0x3dac5332	0.08414306
123	0xbb57bee2	-0.0032920172
124	0x3d7598c8	0.059960157
125	0x3e0aa456	0.13539252
126	0xb9ca1bde	-0.00038549205
127	0x3d218f5d	0.039443363
128	0xbe012559	-0.12611903
129	0x3d08c872	0.033394285
130	0xbdd7289d	-0.10505793
131	0xbd0d1fa3	-0.034454
132	0xbc5ae88d	-0.0133611085
133	0xbe326664	-0.17421871
134	0xbaaeeba6	-0.0013345375
135	0xbdfe48d5	-0.12416235
136	0xbc6fd7f1	-0.014638887
137	0x3cd09e1c	0.025466017
138	0x3d7bba25	0.061456818
139	0x3cbb21d0	0.022843271
140	0xbe2cbf55	-0.16869862
141	0xbd7d350c	-0.061818168
142	0xbdf4b2b2	-0.11948146
143	0x3cbe8524	0.023256846
144	0xbd97cd28	-0.07412177
145	0x3daf355e	0.08555101
146	0x3d8df8df	0.06932234
147	0xbc4dae46	-0.012553757
148	0x3d9d6721	0.07685686
149	0x3d80ded0	0.06292498
150	0xbd4e5326	-0.050372265
151	0x3ddcb12d	0.10775981
152	0xbcdd064d	-0.026980544
153	0x3d61378d	0.054984618
154	0xbc9df044	-0.019279607
155	0xbc2325df	-0.00995776
156	0xbdac7d01	-0.0842228
157	0xbe2c9ba8	-0.16856253
158	0xbdd2f611	-0.1030084
159	0xbdc2c885	-0.09510902
160	0x3e11a342	0.14222434
161	0x3c95c5e3	0.018282836
162	0xbde973cb	-0.11399039
163	0x3db75bb9	0.089530416
164	0xbd30f714	-0.043204382
165	0xbd5fd4b8	-0.054646224
166	0x3bccf352	0.006254592
167	0xbc069f04	-0.008216623
168	0x3df89043	0.12136891
169	0xbba2e09f	-0.0049706246
170	0x3db99faf	0.0906366
171	0x3c0766d2	0.00826426
172	0xbcdc2f3c	-0.026877992
173	0x3e2755ff	0.16341399
174	0xbc85c642	-0.016329888
175	0xbcb3cf4e	-0.021949437
176	0xbd84e52e	-0.06489025
177	0x3d0e1996	0.03469237
178	0x3bafeb27	0.0053686085
179	0xbbbd66b9	-0.0057800678
180	0x3c8c1acf	0.017102627
181	0xbd4c2d59	-0.049847934
182	0x3df2db7c	0.118582696
183	0xbdaa0577	-0.083018236
184	0x3d54f64a	0.051992692
185	0x3cd9a3a9	0.026567297
186	0x3b596f0a	0.0033177757
187	0x3a8dfb83	0.0010832403
188	0xbd6f9021	-0.05848706
189	0xbcccfc3e	-0.025022622
190	0x3cc737d6	0.024318617
191	0x3d8d6587	0.069041304
192	0xbca4c2f6	-0.020112496
193	0xbd918014	-0.07104507
194	0x3dfc20f9	0.123109765
195	0x3daee6ba	0.08540101
196	0x3db9e5da	0.09077044
197	0xbd5923c5	-0.053012628
198	0x3d3f74a6	0.046742104
199	0x3b7974d4	0.003806402
200	0x3d35b83f	0.044365164
201	0xbcdcc4cb	-0.026949307
202	0x3c2e68bb	0.010645087
203	0x3e486b59	0.195722
204	0xbbe08096	-0.006851266
205	0xbe028cd6	-0.12749037
206	0xbbf3232e	-0.007419965
207	0x3d94519d	0.07242129
208	0xbd471143	-0.048600446
209	0xbd127ee3	-0.03576554
210	0xbd16312b	-0.036667984
211	0xbd592a6c	-0.053018972
212	0x3db6fff9	0.08935542
213	0x3d996a66	0.07490997
214	0xbc96419b	-0.01834183
215	0xbd058bf2	-0.032604165
216	0x3d5f303a	0.05448935
217	0xbd2037db	-0.039115768
218	0xbd55ba01	-0.05217934
219	0x3e2acedb	0.16680472
220	0x3cc667fa	0.024219502
221	0xbc8aeeb2	-0.016959522
222	0xbd344e5d	-0.044020046
223	0x3af8a368	0.0018969597
224	0xbdded25b	-0.10879966
225	0x3e2d20f8	0.16907108
226	0xbd12b402	-0.0358162
227	0x3bb29d93	0.005450913
228	0xbd5fa6f6	-0.054602586
229	0xbbb648bc	-0.00556287
230	0x3ce52e60	0.027976215
231	0x3de2f531	0.11081923
232	0xba38fb36	-0.00070564763
233	0x3bb8582d	0.0056257457
234	0x3ce93b93	0.02847079
235	0x3ca32858	0.019916698
236	0xbd834cdc	-0.06411144
237	0xbd85ab00	-0.06526756
238	0xbe021c6f	-0.12706159
239	0xbce663bc	-0.028123729
240	0x3e2e5235	0.17023547
241	0x3e2cd57c	0.16878313
242	0xbb3d103a	-0.0028848783
243	0xbd12dc2e	-0.03585451
244	0xbc9befbd	-0.019035215
245	0xbda945e4	-0.08265284
246	0x3e2cfa1b	0.16892283
247	0xbd0333c0	-0.032031775
248	0xbd03b7e3	-0.03215779
249	0xbce555e9	-0.027995067
250	0xbe1755f4	-0.14778882
251	0x3d15495e	0.03644692
252	0xbda4b2f9	-0.08041949
253	0xbde50b50	-0.11183798
254	0xbe0a9398	-0.13532865
255	0x3d39f105	0.04539587

fc1.bias f4 [128]
0	0x3d80a96a	0.06282313
1	0x3c90fc93	0.017698562
2	0xbcdd255a	-0.02699535
3	0x3ca32925	0.01991708
4	0xbd0c3861	-0.034233455
5	0xbd1ca45e	-0.03824269
6	0xbdb21961	-0.08696247
7	0x3c190ce3	0.009341451
8	0x3c4a96d7	0.012365065
9	0xbd3bc830	-0.04584521
10	0x3b46f170	0.003035631
11	0x3c64ef43	0.01397306
12	0xbd51394a	-0.051080026
13	0xbd7f6734	-0.06235428
14	0xbd8b6e06	-0.06808095
15	0xb96ef8cb	-0.00022790131
16	0xbd66b551	-0.05632526
17	0xbd4d07f7	-0.050056424
18	0x3c54688f	0.012964382
19	0xbbb06783	-0.0053834333
20	0xbd26067d	-0.04053353
21	0xbd4cb285	-0.049974937
22	0x3c828bf9	0.015935885
23	0xbd955c24	-0.07292965
24	0xbd7f3936	-0.06231042
25	0xbccc81db	-0.024964264
26	0x3bddc428	0.0067677684
27	0x3d01c906	0.03168585
28	0xbcc6cfc7	-0.024268998
29	0x3d123417	0.035694208
30	0xbd5c8723	-0.053839814
31	0xbd263e6c	-0.040586874
32	0xbd9d1502	-0.076700225
33	0xbd80bb53	-0.06285729
34	0x3cba221c	0.022721343
35	0x3cdcaf99	0.0269392
36	0x3b2688a5	0.0025411036
37	0x3c242655	0.010018905
38	0xbd139f9b	-0.036040884
39	0xbcb8e309	-0.022569196
40	0x3c4cf720	0.012510091
41	0xbd079339	-0.033099387
42	0xbd15e801	-0.03659821
43	0xbd1ae249	-0.03781346
44	0x3d15cbc8	0.036571294
45	0xbc02d101	-0.007984401
46	0xbd13231d	-0.03592216
47	0xbd3c5943	-0.045983564
48	0xbd9c077e	-0.076186165
49	0x3ba7f24e	0.0051253205
50	0x3c8b30d2	0.016991053
51	0xbd53e994	-0.05173643
52	0xbd66e029	-0.05636612
53	0xbda07aa3	-0.07835891
54	0x3d32642e	0.04355257
55	0x3abfe36c	0.001463992
56	0xbd1d39b1	-0.038385097
57	0xbd191830	-0.037376583
58	0x3c469771	0.012121067
59	0xbd90b467	-0.07065659
60	0xbd26ffcf	-0.0407713
61	0xbb86bcf9	-0.0041118828
62	0xbc2d5a0f	-0.010580554
63	0x3c5aecbb	0.013362105
64	0xbd512b86	-0.051066898
65	0x3c067bbb	0.008208211
66	0xbd09be04	-0.03362848
67	0xbcd34d08	-0.025793567
68	0xbd15ccbc	-0.036572203
69	0xbd888d75	-0.06667606
70	0xbd4670d4	-0.048447445
71	0x3cc0fbe8	0.023557618
72	0xbd6b0537	-0.05737802
73	0xbaae8fa4	-0.0013317955
74	0xbd75403e	-0.05987572
75	0xbbbcdda5	-0.005763727
76	0xbdabeb66	-0.08394508
77	0xbd55fc2c	-0.052242443
78	0xbd88a33a	-0.06671758
79	0xbd1f6a6a	-0.038919844
80	0xbc0564c2	-0.008141698
81	0x3be64be8	0.0070280917
82	0xbd8441bf	-0.064578526
83	0x3b82c4cf	0.0039907466
84	0x3c924511	0.017855199
85	0xbce17f8d	-0.027526641
86	0x3c85768b	0.016291877
87	0xbd2ef77a	-0.04271648
88	0xbda5cece	-0.080960855
89	0xbc5b9adc	-0.013403621
90	0xbd3a372f	-0.045462783
91	0x3bf1578e	0.0073651737
92	0xbd126a46	-0.03574588
93	0xbd9a3b0c	-0.075307935
94	0x3c2518af	0.010076686
95	0xbb0d7498	-0.0021584388
96	0xbb9eebe2	-0.0048498968
97	0xbbd5b5ba	-0.0065219076
98	0x3bd6ed00	0.0065590143
99	0xbd6d8b55	-0.057994206
100	0xbd7f090d	-0.06226449
101	0xbdbf6f85	-0.093474425
102	0x3d025df5	0.031827886
103	0xba4ab89e	-0.00077331986
104	0xb96421ce	-0.00021756368
105	0x3ccfe464	0.02537746
106	0xbd413fc0	-0.047179937
107	0xbd259966	-0.040429495
108	0xbd22b70a	-0.03972534
109	0xbccc7306	-0.024957191
110	0xbca273ed	-0.019830668
111	0x3c249e85	0.01004756
112	0xbc247b3e	-0.010039149
113	0xbd522018	-0.05130014
114	0xbd0f9172	-0.035050817
115	0xbce80fab	-0.028327784
116	0xbd9511b2	-0.07278766
117	0xbdf2a7f0	-0.11848438
118	0x3d87f795	0.066390194
119	0x3d31f3e9	0.0434455
120	0xbbba4acc	-0.005685186
121	0xbce2311f	-0.027611313
122	0xbd5810f6	-0.05275055
123	0xbcec8e00	-0.028876305
124	0xbd6c00d0	-0.057617962
125	0x3b75f0e3	0.0037527613
126	0xbd646b58	-0.055766433
127	0xbca14fd2	-0.019691382

fc2.weight f4 [64, 128]
0	0x3d1ea87e	0.038734905
1	0xbcbf985a	-0.023388077
2	0x3c811c19	0.015760468
3	0xbdeec80f	-0.11659252
4	0xbd0d2bf9	-0.034465764
5	0x3dc31a74	0.0952653
6	0xbda71db7	-0.081599645
7	0x3cbe225a	0.02320974
8	0xbd66976a	-0.056296743
9	0xbd285311	-0.041094843
10	0x3d3f6b66	0.046733283
11	0xbd0e02b5	-0.03467055
12	0x3d8ff061	0.070282705
13	0x3ddaefa1	0.10690237
14	0x3d8a760e	0.067607984
15	0xbd43b271	-0.047777597
16	0xbd1267ad	-0.035743404
17	0x3d01e586	0.03171303
18	0xbbec9485	-0.0072198533
19	0xbd90ae1d	-0.070644595
20	0xbd853f26	-0.06506185
21	0xbbca64ed	-0.006176582
22	0x3adc42c3	0.0016804565
23	0xbd82ef9d	-0.06393359
24	0x3c8430ad	0.016136492
25	0xbdb92441	-0.09040118
26	0xbd83cf10	-0.064359784
27	0xbd4e18ea	-0.05031673
28	0xbcc8a2d5	-0.024491707
29	0x3d09f0ae	0.033676796
30	0xbdd98a58	-0.1062209
31	0xbd2af6ba	-0.041739203
32	0xbcecf61b	-0.028925946
33	0xbd679058	-0.05653414
34	0x3d5c77c0	0.05382514
35	0xbc5d8135	-0.013519575
36	0xbd591275	-0.052996118
37	0x3d1ae26d	0.037813593
38	0xbda360ea	-0.07977469
39	0xbbab317f	-0.0052244063
40	0x3c32fdfb	0.0109248115
41	0xbc55c492	-0.013047354
42	0xbe214e4c	-0.15752524
43	0xbd3ef064	-0.046615973
44	0x3d1317a8	0.035911232
45	0x3c00da91	0.00786461
46	0xbb94e1fa	-0.00454354
47	0xbd6ec34c	-0.05829172
48	0x3cf9339f	0.030420123
49	0xbc8d3cde	-0.017240938
50	0xbb437bb5	-0.0029828374
51	0x3d596d86	0.053082965
52	0x3c6afc91	0.014342443
53	0xbdbe6ad8	-0.092977226
54	0xbc85649e	-0.01628333
55	0xbda692cb	-0.08133467
56	0x3d35655a	0.04428611
57	0xbce8042e	-0.028322306
58	0xbdf3028c	-0.1186572
59	0x3c2fd9f0	0.010733113
60	0xbd6dd34a	-0.05806283
61	0xbc39bb1a	-0.011336112
62	0x3d8695e0	0.06571555
63	0xbd37cb06	-0.044871353
64	0x3d6d314b	0.057908338
65	0xbd8ac0a6	-0.06775026
66	0xbdb39c23	-0.08770015
67	0xbd80c83b	-0.06288191
68	0xbc14d7ba	-0.009084636
69	0xbdc03436	-0.093849584
70	0xbd9a8a5f	-0.075459234
71	0xbd07e908	-0.03318122
72	0xbdd50620	-0.10401559
73	0x3d53bbb0	0.051692665
74	0x3c28ac13	0.010294932
75	0xbda99776	-0.08280842
76	0x3d323017	0.043502893
77	0x3ce84fd1	0.028358372
78	0xbba7c211	-0.00511957
79	0xbd8b4e1f	-0.0680201
80	0x3d7de004	0.061981216
81	0xbd5b5f72	-0.05355782
82	0x3df06065	0.11737136
83	0xbd02354d	-0.031789113
84	0xbe0f1cb8	-0.13975799
85	0xbd8f8a2a	-0.070087746
86	0xbdd3082d	-0.10304294
87	0xbdb9193b	-0.090380155
88	0xbd03da6a	-0.032190718
89	0x3c26328a	0.010143885
90	0xbd93117b	-0.071810685
91	0xbd9c0654	-0.076183945
92	0xbe0da5ed	-0.13832827
93	0x3da118d8	0.07866067
94	0xbcdd6799	-0.027026938
95	0xbdc01847	-0.093796305
96	0x3d903fb7	0.07043403
97	0x3d1f7f71	0.038939897
98	0xbd172da5	-0.036908764
99	0xbb92aeca	-0.004476403
100	0x3d2979a0	0.041375756
101	0xbd5f7fc0	-0.05456519
102	0x3d952b6d	0.072836734
103	0xbd866227	-0.0656169
104	0xbd5bfb1c	-0.053706273
105	0xbdbf9759	-0.09355039
106	0x3d5a13a5	0.05324139
107	0xbd2be842	-0.041969545
108	0xbd9b945e	-0.07596658
109	0xbd97caad	-0.07411704
110	0xbd139f6d	-0.036040712
111	0xbd93f359	-0.07224149
112	0xbda78246	-0.081791446
113	0xbd6d8c6a	-0.057995237
114	0xbd468fa5	-0.048476834
115	0xbcbd2702	-0.02308989
116	0x39e4cf41	0.00043641965
117	0xbdacc0c4	-0.084352046
118	0xbd9ba8d1	-0.076005585
119	0xbda09d85	-0.078425445
120	0x3da5eb17	0.081014805
121	0xbd3b4933	-0.045724105
122	0xbca10ab2	-0.01965842
123	0xbd774cd4	-0.060376003
124	0xbce7b224	-0.028283186
125	0xbcc674bd	-0.024225587
126	0xbdc5edd4	-0.09664503
127	0x3db03065	0.086029805
128	0xbd0192e3	-0.031634223
129	0xbdb3eb60	-0.087851286
130	0x3e0a4351	0.13502242
131	0x3e01bd67	0.12669908
132	0xbbb4c612	-0.005516776
133	0xbd99c5da	-0.0750844
134	0x3dc184d1	0.09449161
135	0x3beef064	0.0072918404
136	0xbda600c8	-0.08105618
137	0x3c906a46	0.0176288
138	0xbe00c29b	-0.12574236
139	0xbe067081	-0.13128854
140	0x3da1b133	0.07895126
141	0xbd8b2d38	-0.06795734
142	0x3d3d7329	0.046252403
143	0x3d3cdf0e	0.04611116
144	0x3c8bbe14	0.01705841
145	0x3daa5846	0.08317618
146	0x3de32887	0.11091714
147	0x3d026106	0.03183081
148	0x3c0d67ce	0.008630706
149	0xbdbe6f51	-0.09298576
150	0xbdab2a74	-0.08357707
151	0x3df3bfeb	0.1190184
152	0xbdf62c72	-0.12020196
153	0x3c2bd460	0.010487646
154	0xbe646d28	-0.22307265
155	0xbd88cefd	-0.06680105
156	0xbd07e6da	-0.03317914
157	0xbdeec3ab	-0.116584145
158	0xbdeee43a	-0.116646245
159	0xbddd357a	-0.108012155
160	0x3e2111f8	0.15729511
161	0xbd698697	-0.05701312
162	0xbded13e0	-0.115760565
163	0x3d798816	0.060920797
164	0xbd9a0117	-0.07519739
165	0x3daf4880	0.0855875
166	0x3d917789	0.07102878
167	0xbc43e77c	-0.011957046
168	0x3e0164f0	0.12636161
169	0x3e02e6bd	0.12783332
170	0xbdabf956	-0.083971664
171	0x3d700db2	0.05860681
172	0xbd016414	-0.031589583
173	0xbd8aafae	-0.067717895
174	0xbcc96234	-0.02458296
175	0x3e41d114	0.18927413
176	0xbd712d61	-0.058881167
177	0x3db56b1c	0.0885832
178	0xbdb5aabc	-0.088704556
179	0xbc9e6e2a	-0.01933964
180	0xbd6eaaa1	-0.058268193
181	0xbd0790d1	-0.033097092
182	0x3ca2da90	0.01987961
183	0xbdbe0427	-0.09278136
184	0x3e175dbd	0.14781852
185	0x3d905dd8	0.07049149
186	0x3cd7d130	0.026344866
187	0xbc159404	-0.009129528
188	0x3e086c2b	0.13322513
189	0xbd507a91	-0.05089814
190	0xbbdae55f	-0.006680175
191	0xbdd47c9d	-0.103753306
192	0x3d9b3974	0.07579318
193	0x3d1ed945	0.038781423
194	0x3c2b02f4	0.010437716
195	0xbdad5e1c	-0.084652156
196	0x3d2494e2	0.04018105
197	0x3dc13ebe	0.09435795
198	0x3e0e16fd	0.13875957
199	0x3df43926	0.11924963
200	0x3de6e0ca	0.11273344
201	0xbe3fd7e1	-0.18734695
202	0x3c63f39f	0.013913064
203	0xbdf8a659	-0.12141103
204	0x3cfd2b1c	0.030904345
205	0x3d9e8d4d	0.07741795
206	0x3bde375b	0.006781501
207	0xbd895364	-0.067053586
208	0xbe066188	-0.13123143
209	0x3e07eff7	0.13275133
210	0x3e05bedf	0.13061093
211	0x3da07829	0.07835419
212	0x3d14ea08	0.036356002
213	0x3d37628f	0.044771727
214	0xbd39d69b	-0.04537068
215	0xbba468ce	-0.0050173765
216	0x3d8fc045	0.070190944
217	0xbd4879fd	-0.048944462
218	0xbd16efb6	-0.0368497
219	0xbd630e45	-0.05543353
220	0x3d5b4d37	0.053540435
221	0x3c8d67f0	0.017261475
222	0xbd9fd45d	-0.07804177
223	0xbdf6619a	-0.12030335
224	0xbda7deb6	-0.081967756
225	0xbd72d7dc	-0.05928789
226	0x3d856572	0.0651349
227	0x3e6b4b18	0.22977865
228	0xbe25833e	-0.16163346
229	0xbdb9d387	-0.09073549
230	0xbdfb1532	-0.12259902
231	0x3d8fc3ce	0.07019769
232	0x3e42c4e0	0.19020414
233	0xbdb8d0a5	-0.09024171
234	0xbcfb0e7e	-0.030646559
235	0x3dca1223	0.098667406
236	0x3d050d8c	0.032483622
237	0xbd3606d9	-0.044440124
238	0x3d032787	0.032020118
239	0xbda9bb8a	-0.08287723
240	0x3df7adee	0.12093721
241	0x3c522045	0.0128250765
242	0xbcbba1e7	-0.02290435
243	0x3c9b7cbc	0.018980376
244	0xbce22b38	-0.027608499
245	0xbd89b3c2	-0.06723739
246	0xbc0cf5c6	-0.008603519
247	0x3d2c1121	0.042008523
248	0x3d227457	0.03966173
249	0xbd1d9679	-0.03847358
250	0xbda845cb	-0.08216437
251	0x3e451be2	0.19248918
252	0xbc8ae0e5	-0.016952941
253	0xbcb0ff75	-0.021606186
254	0x3e02db81	0.12779047
255	0xbca8c672	-0.020602439

fc2.bias f4 [64]
0	0xbcab12e0	-0.020883024
1	0x3e0e19a1	0.13876964
2	0x3c69658f	0.014245405
3	0xbdba2ffe	-0.09091185
4	0x3db98927	0.09059363
5	0x3cf0808f	0.029358177
6	0xbd6bf8ed	-0.05761044
7	0x3db4d8f5	0.08830444
8	0xbb67dc0c	-0.003537896
9	0xbd83a509	-0.06427962
10	0x3dbe4e69	0.09292299
11	0xbe29dee9	-0.1658894
12	0xbd6f7223	-0.05845846
13	0xbd9fea3d	-0.07808349
14	0xbcc635eb	-0.024195632
15	0xbd58f7b8	-0.052970618
16	0xbd562018	-0.0522767
17	0xbc16184f	-0.009161069
18	0xbdcd2b69	-0.100180455
19	0xbda5c57a	-0.08094306
20	0xbc7835cd	-0.015149546
21	0xbd0861e2	-0.033296473
22	0x3d506491	0.050877158
23	0xbdacd512	-0.084390774
24	0xbcdefe82	-0.027220968
25	0x3ddce0b1	0.10785044
26	0xbda2d11b	-0.0795004
27	0xbdc29563	-0.095011495
28	0xbda427bf	-0.080153935
29	0x3d1a6130	0.03769034
30	0x3c20e0e3	0.009819242
31	0x3c4d2ab8	0.012522392
32	0x3c19e9d5	0.009394129
33	0x3c7e3ce8	0.015517451
34	0x3d85cdb0	0.065333724
35	0xbcc6668d	-0.024218822
36	0xbddc18d2	-0.107469216
37	0x3dbae3fc	0.09125516
38	0x3d2e918e	0.04261928
39	0xbc641632	-0.013921307
40	0xbd9130b8	-0.070893705
41	0xbd1ef45c	-0.038807258
42	0x3ce4d292	0.027932439
43	0x3e0f1a58	0.13974893
44	0xba0607b0	-0.000511284
45	0x3e060c63	0.13090663
46	0x3de88105	0.113527335
47	0x3da03920	0.07823396
48	0xbd2bcb0f	-0.0419417
49	0xbd9e4515	-0.0772802
50	0xbd9b1bce	-0.07573663
51	0xbc4e284d	-0.012582851
52	0x3b4f3a9f	0.0031620634
53	0xbd39bce8	-0.04534617
54	0x3d6d04af	0.057865795
55	0xbe02e028	-0.12780821
56	0xbd965a69	-0.07341463
57	0x3d9be42b	0.07611879
58	0xbd1a805a	-0.03772006
59	0xbe0adec1	-0.13561536
60	0xbdfee819	-0.12446613
61	0x3d4bc827	0.049751427
62	0xbd728782	-0.05921126
63	0xbc29c6bf	-0.010362326

fc3.weight f4 [32, 64]
0	0xbd9d6d7a	-0.076868966
1	0xbcf875f5	-0.030329684
2	0x3e790c78	0.24321163
3	0xbe0365b2	-0.12831762
4	0xba546585	-0.0008102286
5	0xbd79d1c7	-0.060991075
6	0xbb35e330	-0.0027753823
7	0xbd128b5c	-0.035777435
8	0xbd0f7016	-0.035019003
9	0x3dafa890	0.085770726
10	0x3d08825b	0.03332744
11	0xbdb70fb6	-0.089385435
12	0xbda5c724	-0.08094624
13	0x3e49d1fb	0.19709007
14	0x3dee74d4	0.11643377
15	0x3df52d13	0.11971488
16	0x3d9f6012	0.07781996
17	0xbc93c64a	-0.018038888
18	0x3e25a76a	0.16177145
19	0xbd72b0bc	-0.05925058
20	0x3e0ec4c7	0.13942252
21	0xb8c61543	-9.445336e-05
22	0xbd92cca7	-0.071679406
23	0x3e4d6f84	0.20062071
24	0xbd371c2f	-0.044704612
25	0xbdd225c9	-0.10261113
26	0xbe3cdf30	-0.18444514
27	0xbd5e9feb	-0.05435173
28	0x3d2ecb30	0.042674243
29	0x3e31d312	0.17365673
30	0xbd5e2d44	-0.054242387
31	0x3d0dfed1	0.03466684
32	0x3c8c83eb	0.017152747
33	0xbdb11a1b	-0.08647557
34	0x3da80776	0.08204548
35	0x3d805847	0.062668376
36	0x3d3e5740	0.046469927
37	0xbdc2ebcd	-0.09517632
38	0xbd73e89e	-0.059548013
39	0x3d4a3973	0.049371194
40	0xbe1c2697	-0.15249096
41	0x3e23ddfe	0.16002652
42	0xbdb85eea	-0.090024784
43	0xbd9e84c7	-0.07740169
44	0xbe478b2a	-0.1948668
45	0x3ce5ccac	0.028051697
46	0xbe214b09	-0.1575128
47	0xbda582a5	-0.08081559
48	0x3dd024c4	0.101632625
49	0x3d573b71	0.052546922
50	0x3ddac988	0.1068297
51	0x3d751bb4	0.059840873
52	0xbcfe5bb2	-0.031049583
53	0xbc05ecc3	-0.008174124
54	0x3d115aa7	0.035486843
55	0x3cc5c838	0.024143323
56	0xbc9af158	-0.01891391
57	0xbd818464	-0.0632408
58	0xbd367d43	-0.044553053
59	0xbd621205	-0.055192966
60	0xbce109fc	-0.027470581
61	0xbce6fc26	-0.028196406
62	0x3e206a46	0.1566554
63	0x3e16316b	0.14667289
64	0x3d55e5fb	0.05222128
65	0x3e10d37d	0.14143176
66	0x3dbb99dc	0.09160206
67	0xbd432ee6	-0.047652148
68	0xbcda1ebf	-0.026625989
69	0xbc1cdb49	-0.009573766
70	0xbe445736	-0.19173893
71	0xbd8b6406	-0.06806187
72	0x3e107c22	0.14109853
73	0xbbc08b40	-0.005875975
74	0xbd2cf3f9	-0.042224858
75	0x3c794258	0.0152135715
76	0x3e037914	0.12839156
77	0x3ddc0d4b	0.10744723
78	0x3e708579	0.23488416
79	0xbd83d37e	-0.06436823
80	0x3b151f25	0.002275416
81	0x3cd4bfe1	0.025970401
82	0x3d73021c	0.059328184
83	0x3c4dc15a	0.012558306
84	0xbdc9190f	-0.09819233
85	0x3e3427e5	0.17593344
86	0x3ddc4159	0.107546516
87	0xbddcb6b9	-0.10777039
88	0x3dc5e1b1	0.09662188
89	0xbbf82977	-0.0075733024
90	0xbda3cdb2	-0.07998218
91	0x3b102533	0.0021994829
92	0xbc352a9a	-0.01105752
93	0x3b938eb4	0.0045030955
94	0xbdd47a4e	-0.1037489
95	0xbd9d23e1	-0.07672859
96	0x3ca1f861	0.019771757
97	0xbdf5c755	-0.1200091
98	0xbd70f07c	-0.058823094
99	0x3e636473	0.22206287
100	0x3ddd1c9e	0.10796474
101	0xbe68f24c	-0.22748679
102	0xbdcb0fd9	-0.09915132
103	0x3d99a799	0.0750267
104	0xbe09acdb	-0.13444845
105	0x3d64a2fa	0.05581949
106	0xbdb265e3	-0.087108396
107	0xbdd697c8	-0.10478169
108	0xbe2e7aa9	-0.17038979
109	0x3dac38f6	0.08409302
110	0xbda7b153	-0.08188119
111	0xbd76e82d	-0.060280014
112	0x3dbae9fb	0.091266595
113	0x3d93f1c5	0.07223848
114	0x3da56f46	0.08077864
115	0x3e0e4e18	0.13896978
116	0xbdf8d0e5	-0.121492185
117	0xbd2face2	-0.042889483
118	0xbc97bb07	-0.018521799
119	0x3d324deb	0.04353134
120	0xbd05259f	-0.03250658
121	0xbd1e27bb	-0.03861211
122	0x3e0bdfb7	0.13659559
123	0xbdca387b	-0.09874054
124	0xbdb6abeb	-0.089195095
125	0xbe18f75c	-0.1493811
126	0xbd8d60a5	-0.06903199
127	0x3d2e5047	0.042557027
128	0x3e0da97f	0.13834189
129	0xbdb751a8	-0.089511216
130	0x3cbec1cf	0.023285775
131	0xbd04161f	-0.03224766
132	0xbc01e157	-0.00792726
133	0xbe1076eb	-0.14107864
134	0x3cd1edfc	0.025626175
135	0xbe2fab21	-0.17155124
136	0x3d056b98	0.032573313
137	0x3db6a2eb	0.08917793
138	0xbe43c644	-0.19118601
139	0x3e0d368b	0.13790338
140	0xbd315a7e	-0.04329919
141	0x3ce7218a	0.028214235
142	0x3d170ef0	0.03687948
143	0xbdb6c908	-0.089250624
144	0xbdec14d2	-0.11527409
145	0x3dffb240	0.1248517
146	0x3cc201e8	0.02368255
147	0xbe02beef	-0.12768148
148	0xbcd87060	-0.026420772
149	0x3cc0c5cf	0.023531822
150	0x3d72723a	0.059190966
151	0x3dad5bda	0.08464785
152	0x3df3c3da	0.1190259
153	0xbc98b34e	-0.018640187
154	0xbd627f69	-0.05529729
155	0x3e227385	0.1586438
156	0xbd69afa5	-0.057052273
157	0x3e403f63	0.1877418
158	0x3d86192d	0.06547771
159	0xbe0ec408	-0.13941967
160	0xbe0d034e	-0.13770792
161	0x3cb24171	0.02175972
162	0x3c8353d9	0.016031193
163	0x3bccb9a0	0.006247714
164	0x3d0c0ddd	0.03419291
165	0xbd11e9f8	-0.03562352
166	0xbda4a349	-0.08038957
167	0x3e13470c	0.14382571
168	0x3cec0415	0.02881054
169	0x3e1b3471	0.15156724
170	0xbdb636ee	-0.08897196
171	0xbdcbd96f	-0.099535815
172	0x39c4245c	0.00037411123
173	0xbdc45394	-0.09586254
174	0xbe0fd97e	-0.1404781
175	0xbe6783de	-0.22608897
176	0x3b7d7e80	0.0038680136
177	0x3de1caa2	0.11024977
178	0x3e117f9f	0.1420884
179	0x3d1afa10	0.037836134
180	0x3de45ea6	0.11150865
181	0x3df79a56	0.12089984
182	0xbdb4643d	-0.088081814
183	0x3d9a458c	0.07532796
184	0x3cd3be32	0.025847528
185	0xbd5f3672	-0.054495282
186	0xbd973606	-0.07383351
187	0xbb22b934	-0.0024829628
188	0xbe159511	-0.14607646
189	0xbe50028e	-0.20313475
190	0x3e1f6b21	0.1556821
191	0x3e3cf844	0.18454081
192	0x3dc4403d	0.09582565
193	0xbd264932	-0.04059715
194	0xbe120126	-0.1425825
195	0xbda1b0e1	-0.07895065
196	0x3e23e1c1	0.16004087
197	0x3bbbf1a5	0.0057355934
198	0x3c49de07	0.012321002
199	0xbe181135	-0.14850314
200	0x3d912430	0.0708698
201	0xbdb0aab1	-0.08626307
202	0xbdcfb258	-0.10141438
203	0xbbe343a7	-0.006935555
204	0x3d2e327b	0.04252861
205	0x3c2c82ed	0.010529262
206	0xbd876695	-0.06611363
207	0xbdaa8cd1	-0.0832764
208	0xbd91c6a1	-0.071179636
209	0xbdf20fbb	-0.118194066
210	0xbdd03d8f	-0.10167991
211	0x3d6455e7	0.055745985
212	0xbd2d23e5	-0.04227056
213	0xbdb9ebe7	-0.09078198
214	0x3d531382	0.051532276
215	0x3d70815d	0.05871712
216	0xbe157f57	-0.14599358
217	0xbda56352	-0.080755845
218	0xbd147521	-0.036244515
219	0xbe06ba16	-0.13156924
220	0xbc2f4872	-0.010698425
221	0xbd9096fc	-0.07060048
222	0xbd3bdb63	-0.04586352
223	0x3d4bdd3d	0.049771536
224	0xbe09f06e	-0.13470623
225	0x3cbf6b6a	0.023366649
226	0x3ca3a9e5	0.019978473
227	0x3d67f309	0.05662826
228	0x3d0cac03	0.03434373
229	0xbd2d1d9d	-0.04226457
230	0xbcc2a8a1	-0.02376205
231	0x3cf0ec37	0.029409511
232	0x3deae75e	0.11469911
233	0xbd439ccc	-0.047756955
234	0xbcdafac0	-0.026730895
235	0xbc33866a	-0.01095734
236	0xbdf39340	-0.1189332
237	0xbdebec7e	-0.11519717
238	0xbd7e0802	-0.062019356
239	0xbc13754f	-0.0090001365
240	0xbe1f7b20	-0.15574312
241	0xbd2774d4	-0.0408829
242	0x3dabef93	0.083953045
243	0x3d1a6a71	0.037699167
244	0xbc86147e	-0.016367193
245	0x3c129279	0.008946055
246	0xbdc20e4c	-0.09475383
247	0xbd83d0a7	-0.06436282
248	0xbcea9dde	-0.02863973
249	0xbe00e31e	-0.12586638
250	0x3cc92040	0.02455151
251	0xbdd39fb0	-0.10333192
252	0xbddf541b	-0.10904714
253	0xba14617a	-0.0005660277
254	0x3db8e098	0.09027213
255	0xbc9af293	-0.018914497

fc3.bias f4 [32]
0	0x3ccc2ae0	0.024922788
1	0xbe74a1cf	-0.2388985
2	0x3c990cc5	0.018682847
3	0xbdd1fb4f	-0.102530114
4	0x3c81e372	0.015855525
5	0x3e3d48ce	0.18484804
6	0xbd88858d	-0.06666098
7	0x3dd469ba	0.10371728
8	0x3e62ee4e	0.22161219
9	0xbd9a3d4e	-0.07531224
10	0x3dca25d8	0.09870499
11	0x3d180bf4	0.037120774
12	0xbe3c5f37	-0.18395697
13	0x3ce3efaf	0.027824251
14	0xbdbc5b1f	-0.091970675
15	0x3e1bf737	0.15231024
16	0xbe4d1e6e	-0.20031139
17	0xbe2ad810	-0.16683984
18	0x3ccd8031	0.02508554
19	0xbe656275	-0.2240084
20	0xbd7ad928	-0.061242253
21	0xbd88caf3	-0.066793345
22	0xbd5ff93c	-0.054681048
23	0xbe21a4b2	-0.15785483
24	0x3c55fd6f	0.013060912
25	0xbdee1b83	-0.11626341
26	0xbd33c5a2	-0.04388965
27	0xbe1a64f3	-0.15077572
28	0x3d9d2b44	0.07674268
29	0x3cb42847	0.021991862
30	0xbdb906e9	-0.09034521
31	0xbd2afe09	-0.041746173

fc4.weight f4 [16, 32]
0	0xbdb297f3	-0.08720388
1	0xbd395bf0	-0.045253694
2	0x3e157488	0.14595234
3	0x3c431f97	0.011909387
4	0xbe1b3c7c	-0.15159792
5	0x3c92578c	0.017864011
6	0x3c6c5df2	0.014426695
7	0xbd915f82	-0.07098295
8	0xbdda7853	-0.10667481
9	0x3e5366c1	0.20644666
10	0xbd0fc427	-0.035099175
11	0x3dd853f0	0.10562885
12	0x3da475c5	0.08030275
13	0x3e7220b3	0.23645286
14	0x3e20b15a	0.15692654
15	0xbd87a20a	-0.066227034
16	0x3d40da11	0.047082964
17	0xbc722b9e	-0.014780907
18	0x3d986b25	0.07442311
19	0x3c920fb6	0.017829757
20	0x3d8685f6	0.0656852
21	0x3ea4f1df	0.32215783
22	0x3d116f0b	0.03550629
23	0x3e15769e	0.1459603
24	0xbdbe41c9	-0.09289891
25	0x3cd0d042	0.02548993
26	0xbe050f9a	-0.12994233
27	0xbdb7488f	-0.08949386
28	0xbd044a11	-0.032297198
29	0xbc7b5ac1	-0.015341462
30	0x3dbbe4df	0.09174513
31	0x3e10ce0d	0.14141102
32	0xbe0bf004	-0.13665777
33	0xbda06882	-0.07832433
34	0x3e1af520	0.1513257
35	0x3dd05def	0.101741664
36	0xbdd69425	-0.10477475
37	0xbe5748f2	-0.2102392
38	0x3e226917	0.15860401
39	0x3df472fa	0.119359925
40	0xbdeb701c	-0.114959925
41	0x3e479674	0.19490987
42	0xbe26547d	-0.16243167
43	0x3e49d403	0.19709782
44	0x3ddf013c	0.10888907
45	0x3c906329	0.017625408
46	0xbc099b3a	-0.008398825
47	0x3c2ed840	0.010671675
48	0x3d1260a0	0.03573668
49	0x3b743616	0.0037263683
50	0x3e5ac24e	0.21363184
51	0x3e3b27a4	0.1827684
52	0xbdb40797	-0.0879051
53	0x3e212eea	0.15740553
54	0x3e03dd89	0.12877478
55	0xbd062a6e	-0.032755308
56	0xbe15ab59	-0.14616145
57	0xbda37e04	-0.0798302
58	0xbe561fae	-0.20910522
59	0x3e130f22	0.14361241
60	0xbe93f3fc	-0.28897083
61	0xbd57ccbe	-0.05268549
62	0x3dee6d51	0.11641944
63	0x3d2ed887	0.042686965
64	0x3e0a49c3	0.135047
65	0x3d8c1c7c	0.068413705
66	0x3caf6341	0.021409633
67	0x3d8fdf9b	0.07025071
68	0xbe5ec379	-0.21754254
69	0xbdcec050	-0.100952744
70	0x3e1c1eed	0.15246172
71	0xbd248c4b	-0.040172856
72	0xbd569a1a	-0.052393056
73	0x3e2e7cd3	0.17039804
74	0xbe04a48b	-0.12953393
75	0x3d4ae754	0.049537018
76	0x3d80cd2d	0.06289134
77	0xbd09a1ab	-0.033601444
78	0x3e4ff01f	0.20306443
79	0xbdcf6f7b	-0.10128685
80	0x3dbdda35	0.09270135
81	0xba4dd2e4	-0.00078515545
82	0xbcd78b37	-0.0263115
83	0x3e265f20	0.16247225
84	0x3dae3d50	0.08507788
85	0x3d4a6e4a	0.049421586
86	0x3e089bc0	0.13340664
87	0xbd5a1c16	-0.05324944
88	0x3d8a7e4c	0.067623705
89	0xbe2147a3	-0.15749983
90	0xbd3fe15b	-0.046845775
91	0x3d3fb071	0.046799127
92	0xbd7967e8	-0.06089011
93	0xbc18183a	-0.00928312
94	0x3c924e87	0.01785971
95	0xbb85f8fc	-0.004088519
96	0xbdd8a1d0	-0.10577738
97	0x3d1ee027	0.038787987
98	0xbe4c2021	-0.19934131
99	0x3de285a0	0.11060643
100	0x3e5937f9	0.21212758
101	0x3e904f3d	0.28185454
102	0x3c6dc65f	0.014512627
103	0x3e7142fd	0.2356071
104	0x3db61804	0.08891299
105	0x3bdbd5eb	0.0067088506
106	0x3e504566	0.20338973
107	0xbe017f81	-0.12646295
108	0xbd04f92d	-0.032464195
109	0xbd3d3a00	-0.04619789
110	0xbe342825	-0.17593439
111	0x3e091012	0.13385037
112	0xbe1e8708	-0.15481198
113	0xbdd3742e	-0.10324894
114	0x3d8ca96b	0.068682514
115	0xbe5c740f	-0.21528648
116	0x3e0194e4	0.12654454
117	0x3d3ab38b	0.04558138
118	0xbdcf2836	-0.101150915
119	0xbe30a9ae	-0.17252228
120	0x3e205745	0.1565829
121	0xbd669c46	-0.056301378
122	0xbbf1e028	-0.007381458
123	0xbd73751e	-0.059437864
124	0x3dae670c	0.085157484
125	0x3d0f59b2	0.03499765
126	0xbd6e051d	-0.058110345
127	0xbe589987	-0.21152316
128	0xbc5d369a	-0.013501788
129	0x3ddce7c5	0.10786394
130	0x3e0a98f0	0.13534904
131	0x3d3d0d39	0.04615519
132	0xbe087bbe	-0.13328454
133	0xbdf6ce03	-0.12051012
134	0x3d1ce839	0.038307402
135	0xbd8fd1d6	-0.07022445
136	0xbe4d0fd7	-0.20025574
137	0x3d235e23	0.039884698
138	0xbe1dfc32	-0.15428236
139	0xbbe60fb8	-0.007020917
140	0x3e1a729e	0.15082785
141	0x3e4e2e97	0.2013496
142	0x3d7a8cd6	0.061169468
143	0xbdcc5084	-0.09976295
144	0x3e6834f5	0.22676452
145	0x3e59790c	0.21237582
146	0xbb10b840	-0.0022082478
147	0xbc3c24a2	-0.011483343
148	0x3d2fda96	0.04293307
149	0x3e2b2ad7	0.16715561
150	0x3e3091bd	0.17243095
151	0x3e283dcf	0.16429828
152	0xbd06c606	-0.032903694
153	0xbdaa9f5f	-0.08331179
154	0xbe28aac6	-0.16471395
155	0x3db0ecb9	0.08638901
156	0xbd98dd15	-0.07464043
157	0x3d180a6f	0.037119325
158	0x3dd1a661	0.102368124
159	0x3c09406e	0.008377178
160	0x3d35ec7f	0.044414993
161	0x3db9442a	0.090462044
162	0x3dc59ae2	0.09648682
163	0xbd253b74	-0.040339902
164	0xbcc40314	-0.023927249
165	0xbd8d1cdd	-0.06890271
166	0x3dee34c0	0.11631155
167	0xbb8c2b57	-0.0042776274
168	0xbdb1047e	-0.08643435
169	0x3e37a767	0.17934953
170	0xbdbcf551	-0.09226478
171	0x3e945490	0.28970766
172	0xbcb1e706	-0.021716606
173	0x3d120877	0.035652604
174	0x3e4d3913	0.20041303
175	0xbe42dc7f	-0.19029425
176	0x3a40bb30	0.0007352112
177	0x3df087ba	0.11744638
178	0xbd13be2a	-0.036070026
179	0x3e261fe1	0.16223098
180	0xbe41d1c0	-0.1892767
181	0x3e9bb272	0.3040958
182	0x3c84c531	0.01620731
183	0x3e5fc262	0.21851495
184	0xbe06e4fd	-0.1317329
185	0xbe0a8f6e	-0.13531277
186	0xbdb66a1f	-0.0890696
187	0x3d95fd1e	0.07323669
188	0x3d192a71	0.03739399
189	0xbc38825b	-0.011261548
190	0x3d46cc98	0.04853496
191	0x3e09fb9d	0.13474889
192	0xbdbeca8c	-0.093159765
193	0xbe155a04	-0.1458512
194	0xbdb5bbbe	-0.088736996
195	0x3d78c8aa	0.060738243
196	0x3e1d2b01	0.15348436
197	0x3dcb7f11	0.09936345
198	0xbd67c699	-0.05658588
199	0x3dbb49d8	0.09144944
200	0x3dbe0f94	0.09280315
201	0xbdde991e	-0.108690485
202	0x3dc18234	0.094486624
203	0x3d0c0927	0.034188416
204	0x3d0a7d48	0.033810884
205	0xbd85d9db	-0.06535693
206	0xbe8b8712	-0.27251488
207	0x3e5a038a	0.21290413
208	0x3d682c39	0.0566828
209	0xbdbf2681	-0.09333516
210	0x3c9e1a4b	0.019299647
211	0x3c044023	0.008071932
212	0x3e199203	0.14997105
213	0xbdbaa37a	-0.09113212
214	0xbddb8b15	-0.10719887
215	0xbe0434ba	-0.12910739
216	0xbd8b54ee	-0.068033084
217	0xbe14c06f	-0.14526533
218	0x3dd89759	0.10575742
219	0x3d457686	0.048208736
220	0x3e1deb7a	0.15421858
221	0x3e21a593	0.15785818
222	0x3cd6e44c	0.026231907
223	0xbe89c7fb	-0.26910385
224	0x3d84eee7	0.064908795
225	0x3ddab973	0.10679903
226	0xbcc9b13c	-0.024620645
227	0xbe2ab5f6	-0.16670975
228	0xbdbb8447	-0.09156089
229	0xbe1ce846	-0.1532298
230	0xbe067d21	-0.1313367
231	0x3dfcf665	0.123516835
232	0xbe6fc90d	-0.23416539
233	0xbd030db4	-0.03199549
234	0xbd81cc7a	-0.06337829
235	0x3e16457c	0.14674944
236	0x3e174845	0.14773662
237	0x3d982100	0.07428169
238	0x3e025c28	0.12730467
239	0xbd78f8d5	-0.06078418
240	0x3d54f947	0.051995542
241	0x3d3ca453	0.04605515
242	0xbd918879	-0.07106108
243	0xbc0d14ab	-0.008610885
244	0xbe02691b	-0.12735407
245	0xbd4c708c	-0.04991202
246	0xbda62cd4	-0.08114019
247	0x3d8f3e06	0.06994252
248	0xbe2c08ff	-0.16800307
249	0xbcb8fb2e	-0.02258071
250	0xb9b014cf	-0.0003358484
251	0x3e4d645b	0.20057814
252	0xbcd7028b	-0.02624633
253	0x3dfd66b9	0.123731084
254	0x3c493523	0.012280735
255	0x3cecc9fe	0.028904911

fc4.bias f4 [16]
0	0xbda3ab9b	-0.079917155
1	0xbe156de2	-0.14592698
2	0xbea6ce3b	-0.32579216
3	0x3e1a2c4a	0.15055957
4	0xbdeca778	-0.1155538
5	0xbe99fff8	-0.300781
6	0xbca81c90	-0.020521432
7	0xbdb59443	-0.08866169
8	0xbdd9ec4a	-0.10640772
9	0xbe558351	-0.20850874
10	0xbd1b6cd2	-0.037945576
11	0xbdd89d00	-0.105768204
12	0x3e5e4356	0.21705374
13	0xbd276dc4	-0.040876165
14	0xbde9cfe6	-0.114166066
15	0xbe9fb135	-0.31189886

fc5.weight f4 [2, 16]
0	0xbe579750	-0.21053815
1	0xbd5fdba8	-0.05465284
2	0x3d6e972c	0.058249637
3	0x3ea16ffe	0.31530756
4	0xbc59fa78	-0.013304345
5	0x3e2d42fd	0.16920085
6	0x3e78be0e	0.2429125
7	0xbdbdf5a0	-0.09275365
8	0x3e18006a	0.14843908
9	0x3dc008a9	0.09376652
10	0x3dded16a	0.10879786
11	0xbe1cdc16	-0.15318331
12	0x3e4d0a9c	0.20023578
13	0xbdf5b232	-0.11996879
14	0xbe44d6b3	-0.19222526
15	0x3d7bd9fe	0.06148719
16	0xbdde8a24	-0.10866192
17	0x3d862289	0.06549556
18	0x3decd073	0.11563196
19	0x3d9c7bce	0.07640801
20	0x3dda4448	0.10657555
21	0x3e717fa2	0.23583844
22	0xbe39a745	-0.18130215
23	0xbd04c316	-0.03241261
24	0xbd988b51	-0.074484475
25	0x3df9ee2c	0.12203631
26	0xbe861b3d	-0.26192656
27	0xbdaf3532	-0.08555068
28	0xbdfed527	-0.12442999
29	0xba6c008e	-0.0009002768
30	0xbd887732	-0.0666336
31	0x3dd062ee	0.10175119

fc5.bias f4 [2]
0	0x3ec4ccab	0.384374
1	0xbe1c3b0e	-0.15256903
