omega/models/ib_lora/checkpoint/imagebind-lora-audio_last.safetensors (safetensors, 591576 bytes, 24 tensors)

w_a_000 f4 [8, 768]
00000000: 0f07 afba 6ad4 fcbc 50c8 363d 56fb b03c
00000010: 012f 72bc 7a7e d9bb d879 12bd b635 5a3c
00000020: d1df ef3c bfd2 05bd 2728 a8bd 64a5 b23c
00000030: 624f db3c c395 233d d0e4 de3c a4e9 9fbc
00000040: 54a0 bfbc bfb3 053d 7cd9 1bbd 8795 d5bc
00000050: 2cf4 793a 307b 8dbc c3f2 953c 3c0f 90ba
00000060: 08a8 d13c 2ebe 9b3b 87dd 023d 2c61 bd3c
00000070: 6fa3 04bd 6058 a83c 93e7 28bd 33fa 043d
00000080: 47c6 00b9 c7eb b33c bfa0 7d3c 4e37 ab3c
00000090: 9a1a ecbc 641c 00bd 9c2e ff3c 1a5c 0bbb
000000a0: a43f 08bd 8c8c 8ebc 5b5a cabc 8d03 4b3d
000000b0: 568e 873c cfb4 df3b 3768 e5bb 0b52 223c
000000c0: cbc8 f93c 6736 51bc f3de b9bc 66c4 043d
000000d0: 323f b63a 9e50 b4bc 5988 0e3d 717c c0bc
000000e0: efb9 e0bc b0b7 4e3d 50d9 7dbc fff9 08bc
000000f0: fb86 29bc eb97 f1bc 82f7 35bc eea3 033d
00000100: bf18 32bb f8cb ae3c 529e 5dbc 17c6 f0bc
00000110: fcbf f73b 377a d23c 7e68 2cbd e5c0 903c
00000120: 7c25 49bc 3c32 78bc dedf 493a 0e50 c33b
00000130: b982 d8bc e55f a23d 640d b6bb 074e 10bc
00000140: 577b 17bd 3c29 92bc 6c89 f0bc 9fcd c1bd
00000150: 12d9 d7b9 445f cb3c 5f3d 18bd 390f c43d
00000160: 1587 37bb ca41 a03b 8601 cbbc fe85 fc3b
00000170: 071a 06bd 6191 de3c e22e fdbc 124a 8e3c
00000180: 74e4 9fbc 775b ca3b 96a7 b4bc f50a 2f3d
00000190: 879a 1a3c be49 debc 4747 9a3c 8901 9c3c
000001a0: 1013 3a3c 183d 75bd aae0 4fbc 1256 c63a
000001b0: 7558 1a3d f238 943c 70eb 96bc 5dc5 9d3b
000001c0: e327 80bc b85e b63c bc60 17bc f61d 843d
000001d0: 5e52 7bbd 89f2 843d d471 013d 6e78 263d
000001e0: cf67 c63b f4fa a1bc 30d0 d93c 6891 f23c
000001f0: 6b98 5bbd 5704 9c3b 72ba c7bc 986c 223d
00000200: e50a 023c 2a2a 143d 4010 fa3c 5cfc a93c
00000210: db35 4abc a14f a1bb adbd 2dbc 3d6c 983b
00000220: 3d3c 86bd 044d 6fbd e383 153c 7f5d c23c
00000230: 89b3 993c 6ee6 423b 8512 1f3c fd43 b1bc
00000240: 1612 cfbb 5b42 ccbc 45fc 30bd 0a30 963c
00000250: f7da 0d3c 2a0e f53b bd45 72bb dfa1 913a
00000260: 6c95 84bb 53c8 173d ff75 5b3c 4790 dc3c
00000270: 3625 c4bc 9481 283c e0c7 4abd f493 cf3c
00000280: 4691 1b3b 62ff 013a ab14 7c3d f92b 433c
00000290: 0fbc 963c 180d 06bd 11e7 3c3a d9e9 ed3c
000002a0: 5bc3 49bd 0884 823c f029 1fbd c461 87bb
000002b0: 72fe 863c 96a5 d53c 6f38 1c3c a559 523c
000002c0: 9298 263d 1df5 943c cf1f a83c 48d4 4abc
000002d0: c5d0 82bc aed6 b83c b27a a73c d3c3 91bc
000002e0: 2dc5 c2bc 30e6 b23c d8c2 9f3c 11f1 603c
000002f0: 194b ca3c 183e 19bd f874 3bba e3c3 5b3c
00000300: 47c1 07bd 58d1 9c3c 186c b1bd 1b56 f9bc
00000310: 7d73 723c d60a 16bd 36d8 10bd d2c4 e2bb
00000320: b58c 973b 0a8d b6bc 06f5 e33b ebfc e2bc
00000330: 03bf a03c 4fc5 a0bb ea05 abbc 5a65 f03c
00000340: 5d20 1fbc 1a5a 61ba 42d8 5a3c a6db 96bc
00000350: a690 103b 629e aebc 5e78 813c 86a4 84bc
00000360: 7252 ca3c f5df d3bc c3d5 333c 5e41 9f3c
00000370: 89b3 a93c b670 083b d80d 203c fab1 233d
00000380: 100a 9a3d b565 aabc 565b 0c3b b900 143d
00000390: 211c 9a3c c471 9d3c 03ed cd3c ebc4 f23c
000003a0: 60e6 23bc 8b15 8dba 7c20 6bbc 5ef8 5c3c
000003b0: 6630 033c a8ee ce3c 42fe 04bd 609d ad3c
000003c0: 40b8 053b 1e1b 56bc a8a1 21bd 96a7 aabc
000003d0: 123d 6cbc 9f44 fcbb e5b4 893d f12d ac3b
000003e0: 592e 083c 3b05 763c 7e24 73bc c3f2 8c3c
000003f0: e635 0b3d 1eb9 09bd cf4e 73bd 3c74 51bd
-0.0013353544 -0.030863006 0.044624627 0.021604221 -0.014781714 -0.0066373916 -0.03576073 0.01331847
0.029281529 -0.032671686 -0.082107835 0.02180738 0.026771251 0.039937746 0.027208716 -0.019520588
-0.02339188 0.032642122 -0.038049206 -0.026072277 0.00095349806 -0.017270654 0.018304234 -0.0010990868
0.025592819 0.004752896 0.031949546 0.023117624 -0.032382425 0.020549953 -0.04123647 0.03246517
-0.00012280895 0.021963013 0.015480219 0.020900395 -0.028821278 -0.031277075 0.031150155 -0.0021264614
-0.033263817 -0.017401002 -0.024701288 0.049563933 0.016547363 0.006826974 -0.007000949 0.009907256
0.030491253 -0.012769318 -0.022689318 0.032413863 0.0013904332 -0.022011098 0.034798 -0.023496838
-0.02743241 0.050468147 -0.015493706 -0.008360385 -0.010347123 -0.029491385 -0.011106374 0.032138757
-0.0027175394 0.021337494 -0.013526516 -0.029391332 0.007560728 0.025693042 -0.04209184 0.017670104
-0.012277003 -0.015148696 0.00077009003 0.005960471 -0.02642952 0.07928447 -0.0055557955 -0.008807666
-0.03698286 -0.017841928 -0.029362403 -0.09463047 -0.00041169726 0.0248257 -0.037167903 0.09573216
-0.00280041 0.004890655 -0.024781 0.007706403 -0.032739665 0.027168931 -0.030906145 0.017369304
-0.019518115 0.0061754542 -0.022052567 0.04273506 0.009436256 -0.027134772 0.018832816 0.0190437
0.011357084 -0.059872717 -0.012687841 0.0015131852 0.037682015 0.01809356 -0.018422812 0.0048147873
-0.01564402 0.022261962 -0.009239372 0.06451027 -0.06135785 0.064915724 0.031602696 0.040642194
0.0060548554 -0.019772984 0.02658853 0.02961035 -0.053612154 0.0047612595 -0.024380896 0.039654344
0.007937168 0.036173023 0.030525327 0.020750217 -0.012341942 -0.0049228226 -0.010604304 0.004651575
-0.06554458 -0.058423057 0.0091256825 0.023726223 0.018762367 0.0029739398 0.009709005 -0.021638865
-0.0063192947 -0.024933985 -0.043209333 0.018333454 0.008658162 0.007478495 -0.0036967837 0.0011110863
-0.004046133 0.03705628 0.013394832 0.026924266 -0.023943525 0.0102848 -0.049507022 0.025339104
0.0023737713 0.00049590145 0.061543148 0.011912339 0.01840022 -0.03272733 0.00072060624 0.029042171
-0.04925857 0.015932098 -0.038858354 -0.0041315276 0.01647875 0.026079934 0.009534939 0.012838756
0.040672846 0.018183285 0.02052298 -0.012379713 -0.01596869 0.022563305 0.020444248 -0.017793572
-0.023775661 0.021838278 0.019502088 0.01372935 0.024694012 -0.037412733 -0.00071509136 0.013413402
-0.033143308 0.019142792 -0.08663195 -0.030436566 0.014798042 -0.036631428 -0.035362445 -0.0069204355
0.004624928 -0.02228405 0.0069566993 -0.027708491 0.019622331 -0.0049063335 -0.020876843 0.029345203
-0.009712306 -0.0008596495 0.013357224 -0.018415283 0.0022058873 -0.021315757 0.015804466 -0.016191732
0.024697516 -0.025863627 0.010976258 0.01944035 0.020715492 0.0020819134 0.009768926 0.039964654
0.075214505 -0.02080045 0.0021416745 0.0361335 0.018812241 0.019219287 0.02513743 0.029634913
-0.010003656 -0.0010763867 -0.014351007 0.01348695 0.008007145 0.025260285 -0.03246904 0.021193206
0.002040401 -0.013067989 -0.039460808 -0.020831864 -0.014418857 -0.00769861 0.06723956 0.0052545
0.008311831 0.0150158955 -0.014840243 0.017205602 0.03398695 -0.033623807 -0.05940133 -0.05113624

w_a_001 f4 [8, 768]
00000000: 82a0 033c 4776 923c 48d4 c3bc 0130 7abc
00000010: 9d5c 8dbc 5253 d83c dc94 cb3c 3ea6 18bc
00000020: b0be 34bc 07e3 b63c c1af 33bc 5b47 e83c
00000030: 18cc 8a3c 7485 d53c c573 fa3a 10f4 c8bc
00000040: 2b1c e4bc 1e38 93bc bbd4 e63c e0b5 d03c
00000050: 4d82 a53b 3453 5fbc d5f1 7a3b d57a eb3c
00000060: 1678 453c 8614 d5bc 14ea d0bc 031d 8a3c
00000070: 3013 39bd 3c6a cd3c 857d ae3a cf55 173d
00000080: c0c0 fa3c 5706 b33c 6656 823c 405f 9abc
00000090: c3ce e23c 3d56 85bc b34a dc3b 7234 45bb
000000a0: 7bba 973c 4da0 cd3b 590f a73c a328 33bd
000000b0: 5df2 8ebc 3e9d 493c 76de 3fbc 5cb4 0cbc
000000c0: 188d 20bd e090 9fbc 024f 41ba 0334 3abd
000000d0: a7de b03c 2ddd 47bb 8c7d 9b3c 9a15 fabc
000000e0: 52cd 60bc 277c dd3c 3035 af3b dcb4 083d
000000f0: be6d 0d3c af42 d5bc fe4a 933c df9f 8a3c
00000100: c9e2 babc d535 7dbc 7307 88bc 3835 00bd
00000110: 0164 043c c436 14bd 1c8f 2e3d c86d 21bd
00000120: d5ed bd3c 241a 1dbc 41bc 76bb dfe6 d5bc
00000130: dda8 34bd 7339 c43c 8954 bbbc b6f9 91bc
00000140: 2ac3 2b3d 5718 aa3c 2b11 d7ba 6ddd b5bc
00000150: 9e93 913b adab 05bc f84b c93c 2e4d 263d
00000160: 3767 05bd a62a 1bbd b0d4 d53b 9f59 dbbc
00000170: d0aa 8fbc 115d 513b fc63 89bc 75c5 c6bc
00000180: b0dc 723c 78ec d5bc 5059 f4bc 7b16 0b3d
00000190: 1281 b23a 78b5 cd3b a286 603c 2d8e 09bb
000001a0: ac41 c03c b8d7 16bc 7560 2bbc 65e5 1bbb
000001b0: bb43 9a3c 56dd 4bbc 603a 38ba b834 343d
000001c0: 538b 7abc 9744 7b3c 328c 1b3d 96d2 54bc
000001d0: 7594 643c 9678 dd3b 18b5 4fbb 5eb7 f43b
000001e0: 325d ae3c 9f12 c8bc e722 393b f9c3 b93c
000001f0: 8cc5 42bc 97f1 713b 5516 963b c31e acbc
00000200: 4387 713a 32ed f8bb c307 edbc 87c4 133d
00000210: 9abf d63c 0f68 183d 505b 96b9 2c45 c73c
00000220: 68dd 6ab9 aa93 9a3c 7768 06bd 9db4 a13c
00000230: ace4 123d a2c9 913c 1e9c 87bc 461c 94bc
00000240: b911 cb3b 3b96 4ebc c9cc 6a3c 05d0 9dbc
00000250: 5219 94bc 5bb9 113c ea01 86bc 85b0 21bc
00000260: 513f 19bd d3cc ccbc a93e fdbc a266 bb3c
00000270: 7080 23bc 2d36 8a3c 532f a8bc 5142 00bd
00000280: 35d3 2bbc b428 b43c ee67 233d 29f9 b3bb
00000290: 9bda d53c 2eef 813c 6d59 fb3c 9489 b0bc
000002a0: 5ab5 24bc 3391 8cbb 2ea5 fabb 604e c93c
000002b0: cac5 96bc 3a12 d9ba 16e2 b43c c4e0 a73c
000002c0: e711 e0bc c185 ec3c 3e8d b93c 771a 9fbb
000002d0: 9e98 c8bc 872b ce3c 141a cc3c ab6c 3e3b
000002e0: 7fde 0cbd c5de 9cbc a074 093d 551b 853c
000002f0: 16b4 033d 5991 61bd c006 18bd 2b7a 363b
00000300: 6544 a13c d5e5 bebc ca05 a8bc b0e8 353c
00000310: 87ef f23c 4a0a eb3b 4a3a 16bd 12f7 d63c
00000320: 8f13 273d 0dbb cdbb 8c3b 77bc ebd3 203d
00000330: ae6a 37bd e432 65bc ba56 dabc dbdd 22bd
00000340: be62 1d3c c2ba 003c 000e 07bc 5c9c debc
00000350: 2847 cbbb 936e 3ebc 90a9 313d 6fdd 3e3c
00000360: 964a 153c ace2 66bc 526b cc3c 9e0e 00bd
00000370: a36e e8bb d17c 1e3d d827 913c 1688 2dbd
00000380: 55fb 953b 6ad9 a8bb 64b3 e63c 3645 f2bc
00000390: 33f0 2bbc 587d 20bd b43c 7c3b e435 053d
000003a0: eceb 1a3b bea7 143c 0551 cf3b 840c 1b3d
000003b0: c0a6 f83c dbb1 e1bb bd45 88bc 1037 d3bc
000003c0: ca0e 123d 7b7a 0c3d 09f0 babc 33c5 e9bc
000003d0: 04d6 8a3c 413b 48bc 7a85 74bc b9f6 d23c
000003e0: 9e66 323d a47e ba3c f08e 2b3c 64e9 b73c
000003f0: 97f7 353c 74c6 413c 8acb 69bc 9c4e 3e3b
0.0080338735 0.017878665 -0.023904935 -0.015270234 -0.017256076 0.026406918 0.024851255 -0.009316979
-0.011031792 0.022325052 -0.010967196 0.028354337 0.016943023 0.026064612 0.0019107988 -0.02453044
-0.027845463 -0.017971095 0.02817761 0.02547735 0.0050509335 -0.013630677 0.0038291116 0.028745094
0.0120525565 -0.026010763 -0.025502242 0.016859537 -0.045184314 0.02507507 0.0013312554 0.036947068
0.030609488 0.021853609 0.015910339 -0.018844247 0.027686482 -0.016276473 0.006722772 -0.0030091074
0.018521538 0.006275213 0.02039306 -0.043739926 -0.017449552 0.012305556 -0.011710754 -0.008587923
-0.039197057 -0.019478261 -0.0007374139 -0.04545976 0.021590544 -0.0030496821 0.018980764 -0.030527879
-0.013720827 0.02703674 0.0053469166 0.033375606 0.008632122 -0.026032774 0.017980095 0.016921936
-0.022813218 -0.015454729 -0.016605115 -0.031300753 0.008080483 -0.03618504 0.04261695 -0.039411336
0.023184696 -0.009588752 -0.003764883 -0.026111064 -0.044106353 0.023953175 -0.022867458 -0.017819267
0.04193417 0.02076356 -0.0016408315 -0.02220031 0.004442646 -0.0081586065 0.024572358 0.040600948
-0.032569136 -0.03788247 0.0065255985 -0.026776133 -0.017537504 0.003194634 -0.01677131 -0.024264077
0.014823124 -0.026113734 -0.029827744 0.033956986 0.0013618788 0.0062777363 0.013703974 -0.0020989284
0.023468815 -0.009206705 -0.010460009 -0.0023787853 0.018831125 -0.012442907 -0.00070277415 0.04399559
-0.015292007 0.015336177 0.037975498 -0.012989661 0.013951411 0.0067587597 -0.0031693634 0.007468148
0.021284673 -0.024422942 0.0028249563 0.022676455 -0.011887919 0.003691768 0.004580299 -0.021010762
0.0009213576 -0.0075966353 -0.028934365 0.036076095 0.02621441 0.037208613 -0.00028678263 0.024324976
-0.00022398459 0.01886924 -0.03281447 0.019739443 0.03586261 0.017796341 -0.016553935 -0.018079888
0.006197181 -0.01260906 0.014331051 -0.01926423 -0.01807848 0.00889429 -0.016358335 -0.009868746
-0.0374139 -0.025000012 -0.030913668 0.022876088 -0.009979352 0.016871536 -0.020530378 -0.031313244
-0.010487367 0.021992065 0.039894037 -0.0054923487 0.026105216 0.01586112 0.03068229 -0.021549977
-0.010053003 -0.00428977 -0.0076490855 0.024573505 -0.01840486 -0.0016561218 0.022080462 0.020492919
-0.027352287 0.028872373 0.022650357 -0.00485545 -0.024486836 0.02516724 0.024914779 0.002905647
-0.034391876 -0.019149194 0.033558488 0.016248384 0.032154165 -0.055070255 -0.037115812 0.0027843814
0.019685933 -0.023302952 -0.020510573 0.01110284 0.029655231 0.0071728574 -0.036676683 0.02624086
0.040790137 -0.0062784017 -0.015089881 0.0392646 -0.044779472 -0.013989184 -0.026652683 -0.03976236
0.0096060615 0.0078570265 -0.008243084 -0.027174167 -0.006203551 -0.011623043 0.043374598 0.011649474
0.009112021 -0.014092129 0.024953518 -0.03126394 -0.007093267 0.038693253 0.017719194 -0.04236611
0.0045770803 -0.005152871 0.028161712 -0.029574018 -0.01049428 -0.039182037 0.003848833 0.032522097
0.0023639156 0.009073196 0.006326797 0.037853733 0.03035295 -0.006887657 -0.016634816 -0.025783092
0.035658635 0.034296494 -0.022819536 -0.028536415 0.016947754 -0.0122211585 -0.014924401 0.025752412
0.043554895 0.022765465 0.010471091 0.022450157 0.011106393 0.0118271 -0.014269719 0.0029038554

w_a_002 f4 [8, 768]
00000000: 9ee5 f03c 1a20 a2bc 2f8c 8cbb 1759 85bc
00000010: 014b 2abd 29c2 003d 2d82 b0bc 3812 b5bc
00000020: 4498 783c 7810 f13c 7361 8d3a c9f7 34bc
00000030: 027c 043c b6ba e8bc e613 743c 649e 983c
00000040: c1ee b23c 5e3d 27bd 9c01 6fbc 9890 d13c
00000050: fa2e a8bc 4816 103d 51eb 2c3d 8465 c7bb
00000060: c93c a5bc 6783 c23c 6e0b f5bb f579 f0bc
00000070: 5390 3bbc 8cdf abbc 3e81 cb3c 29e6 29bd
00000080: 0201 ab3c 9d79 c63c 92be 83bc e600 b6bc
00000090: d66f 57bb 6d5d c7bc a6d4 bcbc a1b7 0d3b
000000a0: 96a8 be3c 2a3b 833c 7fed 26bc 0ca8 833c
000000b0: 4f6e 17bd 47e7 083d 1b84 2e3d dd0a d43c
000000c0: 9b4e 113c f581 49bc c704 44bc 0f84 0f3d
000000d0: 6c11 8ebc 2c63 96bc b4f3 9c3b feee b2bc
000000e0: 9f0c a6bc 6cb7 03bc 3a2f 373c fbf9 f8bb
000000f0: e806 3ebc 8e00 bbbc 6fed 5c3c b643 2b3d
00000100: 0ee8 02bd 7d52 063d ebea 1a3c f28f f33c
00000110: 943f b43b 0ddb 85bc 253f 7bbc e860 2f3d
00000120: 3c4e 083b a363 02bd 31c6 adbc 5f13 3ebc
00000130: 813e 36bd f1f0 bf3c ee26 23bc 6e19 eabc
00000140: 02e0 dcbc f254 8b3c ea25 b7bc f2a4 fbbc
00000150: a554 293c e390 b4bc baf0 033d 8ee4 0f3d
00000160: 3790 bcbc 95e7 5fbc 5ada cc3b dd69 04bb
00000170: ff3b 56bb 1cb8 36bc 05aa 043b 9683 1a3d
00000180: 0920 4ebc 65a3 14bc efe2 89bb a9b9 4d3b
00000190: 8dfd 6e3c 0683 ad3c c48f a23b cb52 1fbd
000001a0: c741 cd3b b180 3b3d 8587 80bc c529 06bd
000001b0: 3aa8 15bd 1f18 09bd 7dfa 88bb 667c 01bc
000001c0: 5068 853c cb82 853c 76e5 17bc e3c9 16bd
000001d0: ed47 a2bc d7e8 9e3c ffb8 13bd 4b7d 833c
000001e0: a12d c7bb a7e6 f23c f407 1cbd 229b fb3c
000001f0: ed6d f1bb 14f0 af3c 0dc0 053d d52b aebb
00000200: d9bf a4bb 2c8e bb3b 6725 29bc 5e62 32bd
00000210: 4c0f a83c dd24 16bd f3e5 083d 2c82 d93b
00000220: b09e b0bc 6061 173c e788 3a3c 0c98 9abb
00000230: 5b1b 253d 5894 8c3b c130 243a 8cb5 f2bc
00000240: 1fda a63c 0702 163c 5809 8a3a d4b0 ad3c
00000250: b80a cb3c 09a3 f3bc 0573 48bb 9dfa 34bd
00000260: 1f5a 7ebc 6790 003d 8d78 ad3c 4781 45ba
00000270: 6178 063d 1cb8 da3c 348c c3bc bc03 f43c
00000280: 1e10 42bd 2df9 2a3b 04e1 48bb a112 30bc
00000290: 5caf 413c 5392 22bd a4af a33c cf61 04bd
000002a0: 2a71 b0bc 02e1 043d 85da 653b 8116 5d3c
000002b0: 0a6a 84bc d309 dabc c86e f93b 2dfb 13bd
000002c0: fdb8 103d 2baf 443c 7e2d a43c 81a9 923c
000002d0: bf38 24bc 3705 58bc 055e fc3c f6c9 953c
000002e0: d635 023d 1d6f 8d3b aed8 893c 6b31 c2bb
000002f0: c0da a53c 7f42 84bc 58a6 453c d047 ce3c
00000300: 34af ad3c c69c 113c b44a 85bc 21d9 3d3c
00000310: 0ebf a73c 0a40 17ba def0 953b 4a79 09bc
00000320: e31e aa3c a0b1 e2bc cce1 aabc c34d bd3c
00000330: c8b5 0c3d 349d f1bc d036 62bc e4fd 70bc
00000340: 1aca 733c f0ad f93c f687 493c e674 fc3c
00000350: 626a 623a 9711 233a a5c7 06bc 8b6e abbc
00000360: 7918 e0bc 05ec 0e3d c978 0f3d b7e8 83ba
00000370: 1170 823c 6e85 0dbd 12a9 1ebd 7a4f 0bbd
00000380: bd9e edbb 7a39 a83c 7ec3 44bc 5a37 8a3c
00000390: 058d 40bc f973 6eba a190 233d 9379 a63c
000003a0: c337 f73b ab24 cdbb 4a02 3ebc bfdd be3b
000003b0: a78f d4bb 2e33 bf3c 2ced b63c 4654 8d3c
000003c0: f806 a4bc feb8 d8bc f07d cf3c ad4e 263d
000003d0: d606 d7bc c6a5 ddb8 c9f1 0abd ed4b ad3c
000003e0: 950c 4e3c a8fa 103c 7097 153d 7bc4 7ebc
000003f0: 5a92 efbc 5bf6 75bc d955 253c 0bd1 313c
0.029406365 -0.019790698 -0.004289172 -0.016277833 -0.041575436 0.031435166 -0.021546448 -0.022103414
0.015173022 0.029426798 0.0010786488 -0.011045405 0.008086206 -0.028409343 0.014897322 0.018630214
0.021842362 -0.04083001 -0.014587786 0.025581643 -0.020530213 0.0351775 0.042216603 -0.0060850997
-0.020170586 0.023744298 -0.007478169 -0.029355029 -0.011447984 -0.020980619 0.0248419 -0.041479263
0.020874504 0.024227912 -0.016082082 -0.022217225 -0.0032873056 -0.024336541 -0.023050617 0.0021624344
0.023273747 0.016019423 -0.010188459 0.016071342 -0.036970433 0.03342369 0.042606454 0.025884086
0.008868839 -0.012299051 -0.01196403 0.03503805 -0.017342292 -0.018357836 0.004789794 -0.021842476
-0.02026969 -0.008039337 0.011180693 -0.0075981594 -0.011598326 -0.022827413 0.013484343 0.04181262
-0.031959586 0.03279351 0.009455423 0.029731724 0.005500743 -0.016339803 -0.015334879 0.042817026
0.0020798584 -0.031833302 -0.02121267 -0.011601298 -0.044493202 0.02343032 -0.009958012 -0.028576579
-0.026962284 0.017008279 -0.022356946 -0.0307183 0.010335122 -0.022041744 0.032211997 0.035130076
-0.023017986 -0.013666053 0.0062516155 -0.00202047 -0.003268957 -0.0111522935 0.002024294 0.037723146
-0.01258088 -0.009072159 -0.004207961 0.003139118 0.014586818 0.02118064 0.004960986 -0.038897317
0.006263945 0.045777027 -0.01568962 -0.03275468 -0.036537386 -0.03347027 -0.004180251 -0.007903194
0.016285092 0.016297719 -0.009271016 -0.036813628 -0.019809688 0.019398136 -0.036065098 0.016050955
-0.0060784374 0.029651 -0.038093522 0.030713622 -0.0073678405 0.021476783 0.032653857 -0.005315284
-0.005027753 0.0057237353 -0.010323859 -0.04355084 0.020515107 -0.03665625 0.03342242 0.006637832
-0.021560043 0.009239525 0.011385179 -0.0047178324 0.04030929 0.004290145 0.00062633684 -0.029627584
0.02036768 0.009155757 0.0010531349 0.021202482 0.024785385 -0.029740827 -0.0030586135 -0.044184316
-0.015524416 0.031387713 0.021175647 -0.00075342174 0.032829646 0.026699118 -0.023870565 0.029786937
-0.04737865 0.0026088462 -0.0030651698 -0.010746629 0.011821594 -0.039690327 0.019981213 -0.03231984
-0.021538336 0.032441147 0.0035072875 0.013494135 -0.016163845 -0.026616013 0.007612083 -0.03612821
0.03533267 0.012004654 0.020041224 0.017903091 -0.010023295 -0.013184837 0.03080655 0.018284779
0.031789623 0.0043162243 0.016826954 -0.0059263012 0.02024591 -0.016144989 0.012063585 0.025180727
0.021201707 0.008887475 -0.016270973 0.011587412 0.020476844 -0.00057697354 0.0045758327 -0.008390734
0.020766681 -0.027672589 -0.020859621 0.023108369 0.034353048 -0.029493906 -0.013807014 -0.01470897
0.014879728 0.030478448 0.012300482 0.03081746 0.0008637068 0.00062205776 -0.00822631 -0.020926734
-0.02735542 0.034893055 0.0350273 -0.0010063861 0.015922578 -0.034551077 -0.038735457 -0.03401134
-0.007251589 0.02053522 -0.0120095 0.016872097 -0.011752372 -0.0009096261 0.03993285 0.020321643
0.007544489 -0.0062604747 -0.011597225 0.005824774 -0.0064868513 0.023339834 0.02232989 0.017252099
-0.020022854 -0.026455399 0.025328606 0.040602375 -0.026248377 -0.00010568979 -0.03392199 0.021154368
0.012576242 0.008848824 0.036521375 -0.015549774 -0.02924459 -0.015012349 0.010091268 0.010853062

w_a_003 f4 [8, 768]
00000000: 69a9 d2bc b463 0cbc 35fe 39bd abdf 54bb
00000010: 1242 eebb 37f6 833c 9fb0 b03c c8f9 46bc
00000020: 3635 203c 5804 5d3b 9ab3 073d d1d9 023c
00000030: 1ef7 ab3a 1a1e 92bc 1dc8 7d3c 6097 da3c
00000040: ff79 9f3b b998 48bc 25e6 13bc fa9f 79bc
00000050: 8dd3 a43c 6552 9a3c 90cc f33c fd43 693b
00000060: 721c bd3c 28d7 fa3a 5d6b a4bc aa4c 7f3a
00000070: 806a 8abc 6a8f c1bc 5e06 a3bc 4ee9 23bd
00000080: b81e 06bc c488 9bbc 31ae 723b ce50 b53c
00000090: 8f33 973c 43c5 8abb 79b8 283c ded3 0f3c
000000a0: 48ca 143d 0b03 50bc dbc5 9eb9 b415 c53c
000000b0: 1b89 07bd d0a8 88bc 11e6 77bc 6231 aebc
000000c0: 1f21 e83c 4432 103d a8a2 7d3c de83 143d
000000d0: 0ad0 eb3b 7c25 81bc 8387 073d 077a 8d3c
000000e0: b4b6 24bd 25ff 7d3c c2f7 d0ba 2117 dc3b
000000f0: c731 063c e781 613b aa52 d23c 441c 183d
00000100: 0ec7 1abd 3964 68bc 1bd5 e6bc 8eb8 6a3c
00000110: 75cf cfbc 2cc1 1ebd 9155 5b3c baa8 04bc
00000120: 3691 cabc a4cd 23bd 58cb 7abb 6e93 a03c
00000130: 2480 78bc 900b c8bb 834a 853b 339d bc3b
00000140: d655 85bb 1e42 7f3c 42a0 d0bc e2aa 2ebd
00000150: c750 08bd 38be 693c ca24 df3b b0af 013d
00000160: 75fc 833c 83fb fb3c b136 10bd 0d3f 6c3c
00000170: 6c96 063d f3a8 adbc d892 8bbc eda4 4bbc
00000180: ec98 92bc 3e7a c0bc cb44 debc d230 393d
00000190: 7999 923c c869 e7bc ad79 37bb f217 173c
000001a0: 35f7 ad3a bfed 4b3c cdaf 87bc 3d3e 8fbc
000001b0: 4f59 68bc 2560 26bc 8271 e63c 144c 02bd
000001c0: 0ba1 00bd d399 ecbc d96b c83c 3834 dabc
000001d0: da47 223c bd2c c63c 2788 b43b dce5 21bd
000001e0: d08c 013a 6748 ec3b 220e aebc b736 f63c
000001f0: 1b53 9abb 76b3 d03c 4177 c63c 1f8c 0c3d
00000200: 9904 bc3c 21b1 863c 131b d13b 71a3 cf3c
00000210: 0bd1 03bd 3c3f 84bc 4f2c 503b d314 133d
00000220: df1e 61bc 1bab 39bc 511a a2bc a620 da3c
00000230: 787a 1cbc c9db 22bd 40e3 d03c f901 6fba
00000240: b1eb 213c 1431 44bc 4591 0fbc 7f4d 043d
00000250: 0983 cdbb 78be 4e3c 8dad b13a 352d 32bd
00000260: ffac cabb 047f b13c 3a08 0f3d e5af 333c
00000270: b96a f8bc 258c f43c b38d ed3c cd56 e83c
00000280: e28f b73c 23a2 42bc ca9b a8bc a73c bd3c
00000290: 7801 8f3c 8cc1 4c3c 825d cbbc d3e3 0a3c
000002a0: 7066 093d 91c6 043d c298 45bc 9608 cc3c
000002b0: f161 0a3d 2169 bc3c 2c57 d5bc c77f d4bc
000002c0: a441 d0bc 7bf4 9bbc 1063 67bd 198e 1bbc
000002d0: 4c93 db3b 1e81 5d3c 1693 9f3c a14a 093d
000002e0: 509c aebc e4ca 213d 6763 353d ac94 8f39
000002f0: 2c9b 69bc fadf 333c af85 1dbc 14ee 6bbb
00000300: d340 fabc 6e6c 783c 96cf 153b ee5e 0c3d
00000310: 898b 05bd fd20 80bc f26e d1bc e32f c3bc
00000320: c352 3dbc b13c 6abc b45d 3f3c de8a b83c
00000330: 8372 2e3d 395a 00bc d528 13bc 4f06 183d
00000340: 93f2 2f3d 7ac2 263d 3b89 3f3c 3205 6a3c
00000350: 9c5e 4cbc eaf8 8ebc 1c07 8eba 91bd 5b3c
00000360: 3441 433b fbcd 3dbc f1b9 3cbc 6e48 163c
00000370: e3c7 6cba 6abf c03c 89e2 fd3a acc2 55bc
00000380: 9f8b 543c a982 cbbb 28fc 813c 96bc b0bc
00000390: bf96 bdbb f447 1a3d b027 1b3d 6342 ac3c
000003a0: 1bd2 9dbc 130c 9e3c 243f cabc 3628 53bc
000003b0: 8b4f 11bd df24 16bc 545b 6ebb 0793 6dbc
000003c0: 222f acbb 2b63 293b d19f 14bc 8747 c23c
000003d0: 7e57 22ba d0ca 2e3c e31e f4bc abb8 993c
000003e0: bd3d d33c ce3b 8cbc 105d b63c 4f3c 23bd
000003f0: 3985 db39 3386 5e3b afab d63c b3a1 943c
-0.025715547 -0.008568693 -0.045408446 -0.003248195 -0.00727106 0.016108615 0.021568595 -0.012144513
0.0097783115 0.0033724513 0.033130266 0.007986502 0.0013119911 -0.01783662 0.015489605 0.02668351
0.004866838 -0.012243443 -0.009027039 -0.015235895 0.020120407 0.018838117 0.029760629 0.0035593503
0.023084853 0.0019137608 -0.020070726 0.0009738902 -0.016896486 -0.023627955 -0.019900497 -0.04001742
-0.008186035 -0.018986113 0.0037030096 0.022133257 0.018457202 -0.004234941 0.010297888 0.00877854
0.036325723 -0.012696038 -0.00030283522 0.0240582 -0.03308974 -0.016682059 -0.015130536 -0.021263782
0.028336106 0.035204187 0.015480675 0.03625857 0.007196431 -0.015764944 0.03308822 0.017270101
-0.0402133 0.015502726 -0.0015942978 0.0067166244 0.008190579 0.0034409703 0.025674183 0.03713633
-0.03778749 -0.014184051 -0.028177788 0.014326228 -0.025367478 -0.03875844 0.0133871 -0.008096868
-0.024727445 -0.039991036 -0.0038268175 0.01960155 -0.01516727 -0.006104894 0.0040677204 0.0057560443
-0.0040690703 0.015579728 -0.025467042 -0.042643435 -0.03328016 0.014266543 0.0068098055 0.03166169
0.016111592 0.030759579 -0.035208408 0.014419329 0.032858297 -0.021198725 -0.017037794 -0.012429458
-0.017895184 -0.02349579 -0.027132412 0.045212574 0.017895447 -0.028248683 -0.0027996108 0.009222018
0.0013272526 0.01244682 -0.01656332 -0.017485732 -0.014181449 -0.010154759 0.028130297 -0.031810835
-0.031403583 -0.028881943 0.024465488 -0.026636228 0.009904826 0.024191255 0.0055093947 -0.03952585
0.0004941942 0.0072107795 -0.021246973 0.030055387 -0.004709614 0.025476199 0.024226787 0.034313317
0.022951411 0.016441884 0.0063814013 0.02534649 -0.03218178 -0.016143434 0.0031764691 0.03590853
-0.01374027 -0.011332299 -0.01978794 0.026626896 -0.009550683 -0.039760385 0.025498986 -0.00091174204
0.009882853 -0.011974592 -0.008762662 0.03230047 -0.006271724 0.0126186535 0.001355575 -0.043500144
-0.0061851735 0.021667011 0.034919955 0.0109672295 -0.030324327 0.029851982 0.028998232 0.028361702
0.022407476 -0.011879477 -0.020582099 0.02310021 0.017456755 0.012497317 -0.024824861 0.008477169
0.033544958 0.03241593 -0.012060346 0.024906438 0.03378481 0.022999348 -0.026042543 -0.025939835
-0.025421925 -0.019037476 -0.056490958 -0.009494328 0.0067009088 0.0135195535 0.019479316 0.033518437
-0.02131477 0.039500132 0.04428425 0.00027385855 -0.014258187 0.010978693 -0.009614392 -0.003600006
-0.030548489 0.01516257 0.0022859327 0.03427022 -0.032603774 -0.01564073 -0.025565598 -0.023826545
-0.011555376 -0.0142966965 0.011680055 0.022527155 0.042589676 -0.007834011 -0.008981903 0.03711539
0.042955946 0.04071281 0.011690433 0.014283465 -0.0124737285 -0.017452676 -0.0010835859 0.013411895
0.0029793503 -0.011584754 -0.011518941 0.009172542 -0.0009032471 0.023528773 0.0019369881 -0.013046902
0.012972741 -0.0062106443 0.015867308 -0.0215743 -0.0057857926 0.037666276 0.037879646 0.02102775
-0.019265225 0.019292867 -0.02468831 -0.012888005 -0.03547625 -0.009164064 -0.0036370354 -0.014500386
-0.005254642 0.0025846462 -0.009071306 0.023715748 -0.0006192847 0.010668471 -0.029799884 0.018764814
0.025786275 -0.01711836 0.022261173 -0.039852437 0.00041870194 0.00339545 0.026204912 0.01814351

w_a_004 f4 [8, 768]
00000000: e5fd 7fbc af4c 50bc 54b6 e5bc 7943 303c
00000010: d525 d6bc 5429 35bb 317b bcbc 567f 97ba
00000020: 6533 f33a 3a2e c9bc b01a dc3c dc03 fb3c
00000030: 3e65 ffbc cd89 9b3c ebfb e63c 806b dabc
00000040: a5b5 0cbd f486 5a3c 1844 bdbc e115 443c
00000050: 2b1d 15bc 4b10 133d 2424 e93c 674e 8b3c
00000060: e6bd 023c 048f cc3c f996 98bc 8c02 59bb
00000070: aed2 cc3c f612 26bd 74ef 02bd 31da 41bd
00000080: 70db 0ebd 76b6 f8bc 3ec6 30bd 860e e73c
00000090: 0e51 423c 589d 2a3d 84e8 8bbc 1650 733b
000000a0: 7075 13bc 3d24 84ba 4f35 27bd 0a84 393c
000000b0: f9db f4bb e1b2 88bc abc1 c9bb 744f f63b
000000c0: dd5c 68bc aa87 c43c 45b8 1ebd b199 163c
000000d0: 3292 2e3d d7a0 e33c 7c81 afbb 3655 ffbc
000000e0: 7217 ad3c 42e2 c63b f64a 25bc 0747 1a3d
000000f0: ab7a 7a3c ce69 e8bc a425 2cbc f250 00bc
00000100: 10f7 febc 997b af3c 83dc 01bd c98f 243d
00000110: 89f4 9bbc 2052 c73c 32cc e13b f389 ab3c
00000120: 0b73 b9bc dda2 0abd 7e66 c73c 5106 ab3c
00000130: 5dca 71bb b35d d03c 9d73 c2bc d81a e93c
00000140: 5f9b 30bc c630 fb3c 41c2 b63c 598a 08bd
00000150: 313d 3bbc 411c 073b 8a73 e9bc 7157 af3c
00000160: 7aea 023b 3713 2e3d 9bba 47bc b143 c53c
00000170: 6baf 153d 853d 96b9 6b56 9c3c 556e d13c
00000180: faa2 bc3c a651 9b3c 0ae9 14bc fba6 97bc
00000190: b716 8fbc 9710 793c 0326 033c c5bb 9d3c
000001a0: 1870 06ba ffd2 a5bb e292 bf3c 1245 b6bb
000001b0: 2993 abbc ce6c 9fbb dc7f bbbc a076 d23a
000001c0: fdf7 00bd 7b16 20bd 5b08 bfbc ff27 84bc
000001d0: 40fb 00bc 4616 a6bc 9c67 1f3d 832c 1abd
000001e0: 325c bcbc f14c f03c 07f4 d13b 78b1 efbc
000001f0: 4df4 343c c24a b2ba ab4e aaba a6a2 033d
00000200: 0a6f 6d3c 49af 3d3c 8b29 d93c d4fa a93c
00000210: f40b da3a 85dd 173b 2d46 043d bb67 c03c
00000220: 92c4 bcbc 0966 18bc bd50 6d3c 7f79 083d
00000230: 3920 84bb c9a7 cebc 2cfd ffbc 91d5 b53c
00000240: 2af0 29bd e44d cabc 5bf9 cdbc b0c0 00bd
00000250: 6849 f9bc d8ae a43c d2b1 70bc 2166 58bd
00000260: 5fa4 e4bc a793 71bc e3f3 473c 3e9f 6dbc
00000270: 5a63 0a3c 3a59 bc3c 72ae 033d 49ec 73bc
00000280: a113 05bd ca14 4c3a add9 34bc 3471 c33a
00000290: 0f9b 64ba b497 82bc 7408 de3b 8607 adbc
000002a0: c583 2b3c fc2c c73c 1c47 8abc 0b0f e9bc
000002b0: efd4 be3c 9f0a 0d3d 4ac5 053d c8e1 9b3b
000002c0: 193a 83bc 5739 683c fc1e c3bc a209 df3b
000002d0: ca8a db3c 9948 5ebc 377c 313c 1163 1f3c
000002e0: 5718 0dbd f9fa a83c e1c4 ebba ecef ae3c
000002f0: 8e75 ecbc 9a74 65bc 4ea2 acbc 6e43 9e39
00000300: ccc7 28bd edad 2b3c 3413 77b9 17b4 9c3c
00000310: 54a1 1ebb 06db 9a3c 6545 dabc 2f97 0fbc
00000320: a5ca 06bc 026a e5bc bf2d d7bc 5e15 0ebd
00000330: b54b a73c a678 41bc 95fb 593c 4edb dfbc
00000340: 32be ec3c 99c8 ee3c 292a b7bb 4104 8f3c
00000350: 5903 2d3d b837 e33c df29 96bc 5f38 33bc
00000360: d9e8 b0bb f0b4 e03c 324f 703c 8d87 ce3c
00000370: 6606 033d 856e 373c 93e6 e9bc 7633 11bd
00000380: d86a 8ebc d8db b43c ba68 c53c 2cfb b3bc
00000390: 90a6 d63c 5074 263d 5454 1d3b abab d63a
000003a0: 80c1 a5bc b984 073d e94e 28bd 5240 7a3a
000003b0: fdaf 5439 d599 813c 19b2 2d3d f218 bf3b
000003c0: 811f 133d 74c5 51bc db25 ea3c 5f68 1b3d
000003d0: 45a4 08bd d265 01bd ec61 87bc 0721 aebb
000003e0: 84ad 0cbd 8e14 c13c bcf8 9fbc 82e4 cbbc
000003f0: af6c 25bd 1ec2 0abd 66ce b0b9 5f9e babc
-0.015624498 -0.012713595 -0.028041042 0.010758274 -0.026141087 -0.0027643042 -0.023007961 -0.0011558335
0.0018554745 -0.024558175 0.026868194 0.030641489 -0.031176206 0.018986607 0.028196296 -0.026662588
-0.034352917 0.013337839 -0.023103759 0.011968107 -0.0091011925 0.03590421 0.028459616 0.017005159
0.007979846 0.024970539 -0.018626677 -0.003311309 0.025002804 -0.040545426 -0.03196664 -0.047327224
-0.03487724 -0.030360442 -0.04315781 0.028205168 0.011860145 0.04165396 -0.017078646 0.0037126592
-0.009000167 -0.0010081601 -0.040822323 0.0113229845 -0.007472512 -0.016686859 -0.00615712 0.007516796
-0.014182297 0.02399047 -0.038749952 0.009191916 0.04261989 0.027786655 -0.005356012 -0.031168561
0.021129344 0.0060694525 -0.010088673 0.037665393 0.015288035 -0.028370764 -0.010507021 -0.007831799
-0.031123668 0.02142124 -0.031704437 0.040176187 -0.019037502 0.024331152 0.006890797 0.020939803
-0.022637865 -0.033846725 0.024340864 0.020877035 -0.00368943 0.025435304 -0.02373677 0.028455183
-0.010779231 0.030662905 0.022309424 -0.033335064 -0.011428163 0.0020616206 -0.028497476 0.021404
0.0019976185 0.042498793 -0.012190486 0.02408013 0.036544245 -0.00028656065 0.019084176 0.025565306
0.023026932 0.018959831 -0.009088764 -0.01851224 -0.017466886 0.015201709 0.008004668 0.019254575
-0.00051283976 -0.005060553 0.023385469 -0.005562433 -0.020944195 -0.0048652655 -0.022888117 0.0016057082
-0.0314865 -0.03908394 -0.023319414 -0.016132353 -0.007872403 -0.020274293 0.03891717 -0.037640106
-0.02299318 0.029333564 0.006407264 -0.029259428 0.011044574 -0.0013602602 -0.0012993416 0.032137536
0.014491806 0.011577436 0.026509067 0.020749487 0.0016635642 0.0023172807 0.032293487 0.023486963
-0.02304295 -0.009301671 0.014484582 0.033318993 -0.0040321616 -0.02522649 -0.031248651 0.022196563
-0.041488804 -0.024695344 -0.025143316 -0.03143376 -0.03043051 0.020102903 -0.014690833 -0.052831773
-0.02791041 -0.014744676 0.012204143 -0.014503298 0.008446539 0.022991765 0.032148786 -0.014887878
-0.032489423 0.000778508 -0.011038226 0.0014911056 -0.00087206153 -0.015941478 0.00677591 -0.021121752
0.010468428 0.024313442 -0.01687961 -0.028449556 0.023294894 0.034433957 0.032658853 0.00475714
-0.016018914 0.014173827 -0.023818485 0.0068065682 0.026799578 -0.013567113 0.010832838 0.009728209
-0.03444704 0.020627486 -0.0017987752 0.021354638 -0.028864648 -0.014004851 -0.021073487 0.00030186347
-0.041206166 0.010478479 -0.0002356291 0.019128842 -0.0024205046 0.018903267 -0.026644418 -0.008764072
-0.008227025 -0.02800465 -0.02626693 -0.034688346 0.020421842 -0.01180855 0.013304611 -0.027326252
0.028899286 0.029148387 -0.0055897427 0.017458083 0.04223952 0.02773653 -0.018330513 -0.010938733
-0.0053988514 0.027430028 0.014667319 0.02521112 0.031988524 0.0111957835 -0.02855233 -0.035449468
-0.017384931 0.022077486 0.02409779 -0.021970354 0.02620247 0.040638268 0.0024006562 0.0016378065
-0.02023387 0.03308556 -0.04109088 0.00095463276 0.00020283456 0.015820423 0.042406175 0.005831831
0.035918716 -0.012803424 0.028582504 0.037941333 -0.033359785 -0.031591244 -0.016526185 -0.0053139958
-0.034345165 0.023569372 -0.019527785 -0.024889234 -0.040386852 -0.03387653 -0.00033723115 -0.022780595

w_a_005 f4 [8, 768]
00000000: 86a8 4b3c e12f 2b3b 7016 1fbd a546 17bd
00000010: 2118 36bb 0172 e139 b46a 163c 6959 e83c
00000020: 67d7 f13c bec9 bbbb d22d 143d e120 45bc
00000030: 23c9 2f3c 25e9 e13c c82c 57bb fb94 563c
00000040: 1315 36bc a7cc 55bc 5b0e 70bc edfa f4bc
00000050: 7f5b a63c 9369 db3b bb20 ab3c d19f ac3c
00000060: 7211 993c c298 1b3d e912 06bd 1306 003d
00000070: fa73 86bc 78b9 cfbb ef49 fcbb 0752 18bd
00000080: 0fe9 7dbc 233d c43c ec40 d6bc f662 5bbb
00000090: 3e59 09bd 6d9d b7bc f150 c9bc a45d e5bc
000000a0: d445 b3bc 0041 d43c 40d2 cd3c 90a4 a23c
000000b0: 66de e2bb 3861 b6b9 3242 cabc 7ed0 ccbc
000000c0: 29ad b8bb 51d5 84bc 0250 f6bc 0d15 043c
000000d0: 4ac5 c1bb 4015 10bc 8604 0936 10cb 03bd
000000e0: 35aa bb3c 6659 5ebc 0574 d73c 0302 9dbc
000000f0: 9c81 3abc 0a2b 2b3c 4700 753c 6430 b93c
00000100: 9c1b f5bc 53b8 e8bc edc4 e33c 32f7 153d
00000110: 9f5c a6bc fa13 c53c 9623 00bd f731 653c
00000120: 7af4 013d 2edc 943c 5c08 2abd 6586 c63c
00000130: a650 c33b 6cfd d33c cc4c 44ba be52 02bc
00000140: 4991 b83c 0555 f4bc a325 ebbc c8cd 74bb
00000150: 34e0 bc3c b9e7 a03c f7d8 ae3b d0b3 b4ba
00000160: e5a1 acbc 4f61 113d bb97 80bc 73e3 0bba
00000170: b818 083d 6e02 873c e828 97bc 41d8 b0bc
00000180: 18c5 0c3d b38a ffbc 7630 943c 955d f83c
00000190: cc57 b1bc 3b78 dcba d5b3 473b b082 c23c
000001a0: b6fc e33c 5fd0 1f3b 688d 40bc fd71 cc3c
000001b0: 8083 37bd f758 90bb 5bec aebc 7c55 68bb
000001c0: bce4 0dbd 5b17 14bd dd70 f2bb bac7 88bc
000001d0: daa6 0a3c 8417 a5bc 965e abbc f831 c0bc
000001e0: 8013 2a3d 8944 113c 748f 363c f93b ffbb
000001f0: 0c2f 803b c032 e63a 0395 0c3d 10ff 313c
00000200: 1261 bd38 f67f d23c 0dcc 1abc cf72 4bbb
00000210: 3980 0c3d e8c4 31bd 5e2f cc3b 3465 d6bc
00000220: 3a2c 1fbd f7a9 993c 9d4b 2e3c 8726 a3bb
00000230: 9ae9 0a3d f418 2a3c d84c c33c 3ab9 89bb
00000240: 44f2 bdbc ff7a a23c 8012 efbc ae86 abbc
00000250: fa06 253d 302a 103d a31e a63c 6db4 fcbc
00000260: d9bc cdbc 8f98 203b 4e35 bc3c ec75 01bd
00000270: f468 e93b 150a 1a3d 3a58 f03b 0041 ed3b
00000280: 5ef7 21bc cd9f ba3c f715 9fbc fcd7 d7bc
00000290: 7346 853b 0f8d 1abd 25b2 b33c 73be 05bd
000002a0: 4c43 f2bc 7ecf 3dbb e5a0 213c fdb6 e5bc
000002b0: 6995 483b 0fd6 6e39 ae70 edbc 23a7 8b3c
000002c0: 57f8 76bb 8d1b a33c d8a8 babc 5205 7abc
000002d0: 2f74 0bbc 4854 5e3c dcf4 c2bc c07a aebc
000002e0: 4b60 9fbc 302d 3dbc d0d9 d8ba dd6a 023c
000002f0: d21c 54bb d884 0e3d 8695 a73c 4f27 7b3c
00000300: 3e40 5bba ac4a f83c 3ff4 233c a64a f9bc
00000310: e8d8 25bd 8313 de3c c507 fdbb 2765 533b
00000320: 2864 08bd a93b f8bc d328 6ebc 636a c43c
00000330: 34db 3b3d 69c4 a03b d21f e63c cb88 2cbb
00000340: 22cb af3c a359 923c 9dee dd3c fe9e 903c
00000350: 7c54 8abc 4529 a2bc 8745 7e3c 2440 f83b
00000360: 8089 07bd 1d94 423c 8481 9b3a ec53 953c
00000370: 2d13 63bc 3fd6 2e3c 5293 33bc bfaf e1ba
00000380: bd0b f93c 2fb4 873a 0c52 7f3c 3709 edbc
00000390: 3d61 1e3c 82e5 e3bb 9ae0 233b 7562 debb
000003a0: 6c30 cf3c 6069 fb3c 8cd0 973b 55b2 13ba
000003b0: b4d4 dfbc e72d 133c bdb3 983c 5f77 f6bc
000003c0: d64b 0cbd fed8 b7bc 65b1 a43c af17 153b
000003d0: 957c 09bd 464e fdbb b8bd 883c a7a0 c139
000003e0: cf85 113d 5e04 bf3c e7a1 d0bc 1dff 003c
000003f0: 500a 893b 95a4 693c 9dcb a03c 0707 01bd
0.012430316 0.0026121067 -0.038839757 -0.036932606 -0.0027785378 0.00043000284 0.009180713 0.028362947
0.029521657 -0.0057308367 0.03617651 -0.012031765 0.010729107 0.027576992 -0.0032833088 0.013097043
-0.011113423 -0.013049281 -0.01465186 -0.029904807 0.0203073 0.006695935 0.02088963 0.0210723
0.018685076 0.037987478 -0.032732878 0.031255793 -0.016412724 -0.0063392483 -0.0076992433 -0.037187602
-0.01549746 0.023954934 -0.026154004 -0.0033475733 -0.033532374 -0.022413934 -0.024574729 -0.027998753
-0.021883883 0.0259099 0.02512467 0.01985386 -0.0069234846 -0.0003478618 -0.024689768 -0.02500176
-0.0056358767 -0.016214998 -0.030067448 0.0080616595 -0.0059134113 -0.008794129 2.0417224e-06 -0.032176077
0.02290831 -0.013571119 0.02630044 -0.019165998 -0.01138344 0.010447273 0.014953679 0.022606082
-0.029920392 -0.028408205 0.027803862 0.036612697 -0.020307837 0.024057377 -0.031283937 0.013988963
0.03172729 0.018171396 -0.04151188 0.024234006 0.005960542 0.025877677 -0.000748825 -0.007954298
0.022530215 -0.029825697 -0.02870447 -0.00373541 0.023056127 0.019641744 0.005335923 -0.0013786498
-0.021073291 0.03549319 -0.01569735 -0.0005336322 0.0332267 0.01648065 -0.018452123 -0.021587493
0.03436765 -0.031194067 0.018089514 0.03031806 -0.02164831 -0.00168205 0.0030472178 0.023743957
0.027830463 0.0024385673 -0.011752464 0.024956698 -0.044803143 -0.0044051367 -0.021352937 -0.0035451343
-0.034641966 -0.036155086 -0.0073987083 -0.0166968 0.008462632 -0.020152815 -0.020919126 -0.023461327
0.041522503 0.008866438 0.0111426 -0.0077891317 0.0039118584 0.0017562732 0.034321796 0.010864034
9.030303e-05 0.025695782 -0.009448064 -0.0031043773 0.03430197 -0.043400675 0.0062312325 -0.026171304
-0.038860537 0.018757803 0.010638145 -0.004978958 0.033914186 0.010381926 0.023840353 -0.004202989
-0.02318681 0.01983404 -0.029183626 -0.020938244 0.040289856 0.035196483 0.02027828 -0.030847752
-0.025114464 0.0024504995 0.022974636 -0.0316066 0.007123107 0.03760727 0.007334736 0.0072404146
-0.009885637 0.022781277 -0.019419653 -0.026348107 0.004067236 -0.03773218 0.021935532 -0.03265233
-0.029573105 -0.0028962786 0.00986502 -0.028041357 0.0030606634 0.00022777192 -0.028984394 0.01704747
-0.0037684643 0.019910598 -0.02278559 -0.0152600575 -0.008511587 0.013569899 -0.023798399 -0.021298766
-0.019455096 -0.011546418 -0.0016544405 0.0079600485 -0.003236581 0.03479466 0.02045704 0.015329196
-0.000836376 0.030309044 0.010006963 -0.030431103 -0.04049006 0.027108913 -0.0077218735 0.0032256336
-0.03329864 -0.030301886 -0.0145361 0.02397651 0.045863345 0.0049062264 0.028091345 -0.0026326652
0.021459166 0.017865008 0.027091319 0.017653938 -0.016885988 -0.01979507 0.015519506 0.0075760055
-0.033090115 0.011876133 0.001186416 0.018228494 -0.013859552 0.010671197 -0.010960417 -0.0017218514
0.030401105 0.0010353382 0.015583526 -0.028935058 0.009666738 -0.0069548497 0.00250057 -0.0067866393
0.025291644 0.030689895 0.004633015 -0.00056341785 -0.027323104 0.008983112 0.018640393 -0.030086217
-0.03425201 -0.022442337 0.02010412 0.0022749712 -0.033566076 -0.007730278 0.016692027 0.00036931524
0.035528 0.023317512 -0.025467826 0.007873324 0.0041821375 0.014260431 0.01962834 -0.031500842

w_a_006 f4 [8, 768]
00000000: 91a1 4dba 02ea b93c 666b bf3c 674c 16bd
00000010: 552c 873c b1d5 803c d904 36bc 471c d3bc
00000020: 129c 743c d6f8 463a c7f6 4b3c 02b2 06bd
00000030: 8325 013d 36dd c4bb 2cfc 0abd 26be 9dbc
00000040: ef5c 083c 855d 0cbd 21b4 b13c 51cb 153d
00000050: 322e 423b 40d9 2dbc 0260 3f3c ec70 95bc
00000060: ab56 b53c 4154 3dbc 6293 5139 0c10 243d
00000070: 41f5 d33c c439 1dbc 60ea a8bb 364e 2dbb
00000080: b9ba a43c 31b6 223c e074 e8bc 4896 4e3c
00000090: a991 b0bc d8c6 b63c de86 6b3c af37 4e3c
000000a0: 7a28 47bc ed32 b63c 06db 24bd 194a 07bd
000000b0: 26b2 16bc c91e 4c3a 3e5e c03c 1da6 0dbd
000000c0: d1d8 0e3d 1b99 86bc 8a4b ae3c 4362 053c
000000d0: 885d 153d 2355 82bc fc06 1f3d 4e5d 45bc
000000e0: ff51 e73c 51f5 c8bb bdb1 053c ea78 cf3b
000000f0: e0bb 9fbc ff6a 28bb 081e f83c 7d1a c53c
00000100: 28e9 9cbc e3d7 89bc ffb2 f23c 10cf c33c
00000110: 2bf5 eb3c 8b30 2cbc 9677 513c f58f a5bc
00000120: 9b0d 3ebc a3e9 dc3c 72cb e7bc ccac 9abc
00000130: dee9 77bc 6c5f acbc 6e7f 75bc 5840 cc3c
00000140: 21c7 ccbc 695a d0bc fd5d 9d3c 8820 d6bb
00000150: b84a c93a 864f c9bb cb8b ecbc 69cc b93b
00000160: 4acb a93c 3974 ba3c 4651 d7bc 3874 8cbc
00000170: 4626 f43c e956 12bd a893 413a 4535 a53c
00000180: 726b c83b 0e4d 00bd 9ac6 f43c 5d27 703c
00000190: 2d06 c53c 0fa5 a7bc fb9b cdbb 67c2 bbbc
000001a0: 7218 bb3b dc09 143c 40e4 f43c c204 15bb
000001b0: 041c 38bb 0475 803c 3268 cdbc 5a0c dd3c
000001c0: 4388 f43c 5bdf d5bc 2dfe f9bc 9ae8 1e3d
000001d0: c3d2 a0bc 2287 dfbc 59b4 0c3b 8a0f ed3b
000001e0: 85ca 3cbc bace bfbb 2271 b8b9 423e d53c
000001f0: 0f8a 923c fbab afbc 3d1e a1bc eb6c ec3c
00000200: ef5f f83c b3ce 99bb 7f3a 823b ccdf 3abc
00000210: 6e86 153d bd4c dcbc 9703 293c 879d fa3c
00000220: 5468 53bc d15c 57bc 650e 3f3c 74e7 a7bc
00000230: 1da1 e2bc 8dae bfbc 731c f83b 34e2 8cbc
00000240: 6869 0a3c c4e6 9b3c 1eba 9dbc a06d f1bc
00000250: 73f0 ec3c 98a7 4dbc bb90 b63c 4e6d d03c
00000260: f5b4 b23c 03e7 5b3c 7401 95bc 32ce a7bc
00000270: 5881 ab3c 24bf bcbc da1d babc 5942 47bc
00000280: 18c7 e8bb b5f0 cdbc 1ac0 cabb 3508 1cbc
00000290: 34bc f5bc 7fe1 c83b 28fa 06bd 1be6 4d3a
000002a0: 3735 673a f5cc df3a 8bb6 dfbc ab1c 94bc
000002b0: 3411 213b ccae 91b9 a484 91bb 4119 f63c
000002c0: edab 9d3c 12c8 c6bc cf12 44bc 549c a83c
000002d0: b1ff 873c 7f16 163d 4091 89bc fb47 e2bb
000002e0: 7ea0 dc3c df79 ebbb b3af 86bb 7d86 10bd
000002f0: 1bd0 af3b de12 5a3c 9e62 093d 302b 57bc
00000300: 8907 963b 4da4 d8bb 1994 2fba f8fc 4fbb
00000310: 9937 e9bc be29 3fbc 55c4 f9bc ec0d 9e3b
00000320: 63f8 d8bc 3e5b 133d 6d18 de3b a10f af3c
00000330: 42f1 143d bb29 953c 05b9 bb3b 6a5e d2bc
00000340: 0e3a e8bb 95b5 7a3c d1ee 84bc 0d4c e7bc
00000350: d36d 263d dbf7 6e36 7fe2 15bd d34c a5bc
00000360: 6991 7c3c 1005 a9bc e6e7 92bb 2100 e8bc
00000370: 4d19 d7bc bcc9 eebc f46b 923c 9489 c1bc
00000380: 89dd 073d 1cbe bfbc fde9 d83a 4557 6fbc
00000390: ad40 2abc b407 c2bc c60d eb3c acd6 423c
000003a0: 4e03 ab3b 3406 50bc aafa f0bc 5a1a 1cbc
000003b0: 379c 28bd 6da2 dd3c 34dc 9abc ed91 833c
000003c0: f9e8 8cbb a682 6bbc 9eb7 6dbc 696a 2b3d
000003d0: dc7f ae3c 4d50 1ebd eadc 19bd c0a7 4f3b
000003e0: f18f 143d e9bb ae3b 6da0 e23c 88f9 093d
000003f0: d1a6 10bd e4dc 8cbc 9978 96bc f486 223b
-0.00078442047 0.022694591 0.023366641 -0.036693957 0.016500631 0.015726896 -0.011109554 -0.02577032
0.014929788 0.000759018 0.012448973 -0.032884605 0.031529915 -0.0060078157 -0.033931896 -0.019255709
0.008322938 -0.034268875 0.021692337 0.03657085 0.0029629585 -0.0106108785 0.011680605 -0.018242322
0.022136053 -0.011555732 0.00019986698 0.040054366 0.025873782 -0.009596292 -0.005154893 -0.0026444322
0.020108568 0.009931133 -0.028376043 0.012609072 -0.021553831 0.022311613 0.014375417 0.012586518
-0.012155646 0.02224108 -0.04024794 -0.03302965 -0.009197747 0.000778657 0.023482438 -0.034582246
0.03487474 -0.016430428 0.021276254 0.008141103 0.03646615 -0.015909737 0.03882502 -0.012046171
0.028237341 -0.0061327596 0.008160052 0.0063315528 -0.019498765 -0.002569854 0.030287758 0.024060482
-0.019154146 -0.016826576 0.029626368 0.023902446 0.028803429 -0.01050962 0.012784859 -0.020210246
-0.0115999235 0.026966875 -0.028295252 -0.018881224 -0.015131442 -0.021041594 -0.014983995 0.024933025
-0.024997296 -0.025433736 0.019209856 -0.0065346397 0.0015357351 -0.006143513 -0.028875252 0.0056701195
0.020726819 0.022760497 -0.026283871 -0.017145261 0.029803406 -0.035727415 0.0007384368 0.020167002
0.006116324 -0.031323485 0.029879857 0.014657822 0.024050796 -0.020464448 -0.006274698 -0.022919847
0.005709701 0.009035554 0.029893994 -0.0022738432 -0.002809287 0.015680797 -0.025074098 0.026983429
0.02985013 -0.02610748 -0.030516708 0.038796045 -0.019631749 -0.027286116 0.00214698 0.0072345184
-0.011522894 -0.005853501 -0.00035179505 0.026030663 0.017888097 -0.021444311 -0.019667739 0.02886053
0.030319182 -0.00469383 0.0039742584 -0.011405896 0.036505155 -0.02689206 0.010315797 0.030592693
-0.012903292 -0.013144688 0.011661147 -0.020496108 -0.027664715 -0.023398662 0.007571751 -0.017197706
0.008447982 0.019030936 -0.019253787 -0.029471219 0.028923249 -0.0125521645 0.02228581 0.025442746
0.021814803 0.013421777 -0.01818917 -0.020484064 0.0209357 -0.023040362 -0.022719312 -0.012161815
-0.007103812 -0.025139192 -0.006187451 -0.009523441 -0.029996969 0.006130397 -0.03295341 0.0007854418
0.00088198803 0.0017074632 -0.027308723 -0.018080076 0.0024576904 -0.0002778679 -0.004440861 0.030041339
0.01924702 -0.024265323 -0.011967375 0.020582356 0.016601415 0.036642548 -0.016792893 -0.0069055534
0.026931997 -0.007186159 -0.0041103004 -0.035284508 0.0053653843 0.013310162 0.033541314 -0.013132855
0.004578535 -0.006611383 -0.00066977885 -0.0031736474 -0.028468894 -0.011667667 -0.030489126 0.004823437
-0.026485628 0.035975687 0.006777814 0.021369757 0.036362894 0.018208375 0.005728843 -0.025679786
-0.007086999 0.015302082 -0.016227158 -0.028234506 0.04063208 3.5609035e-06 -0.036592957 -0.020178234
0.015415528 -0.020632297 -0.004483211 -0.028320374 -0.026257182 -0.029148929 0.017873742 -0.023625173
0.033170257 -0.02340608 0.0016549226 -0.014608209 -0.0103913965 -0.023685314 0.028693091 0.011892002
0.0052189 -0.012696791 -0.029416401 -0.009527767 -0.041164603 0.02705499 -0.01890383 0.016060794
-0.0043002334 -0.014374411 -0.01450911 0.041849528 0.021301202 -0.0386508 -0.037564196 0.003168568
0.036270086 0.005332459 0.027664388 0.033685237 -0.03531534 -0.017195173 -0.018368052 0.0024799677
